hdqn/controller.pth (torch, 81311 bytes, 4 tensors)

fc1.weight f4 [512, 29]
000000 93 93 c5 3d d3 00 b5 3d 25 37 44 bd b7 c2 3b be
       0.09647288 0.08838048 -0.047904152 -0.18335997
000010 3c ba 94 3c 54 2b 0b be 39 0d ea bd 75 20 65 3c
       0.01815521 -0.13590747 -0.11428303 0.013984789
000020 a2 fb 86 3d b3 e7 83 bd ff f2 12 3e 53 b8 06 bc
       0.06590964 -0.064406775 0.14350508 -0.008222657
000030 1f 39 e1 3c 2f 4a 68 3c 87 e3 bc 3d 17 76 ba 3d
       0.027493058 0.014177843 0.09223085 0.09104555
000040 7e ff 3c bd a7 84 ec bd c2 1b 73 3d 53 3a 9c 3d
       -0.046142094 -0.11548739 0.059352644 0.07628312
000050 6c ea 79 bd 4b 59 d3 bd f9 4e 9f 3d 26 9c 17 3e
       -0.061014578 -0.10319766 0.07778735 0.1480566
000060 03 92 c9 3d 74 02 20 be d5 09 c5 3d 39 d4 36 3e
       0.09842303 -0.15625936 0.09621016 0.17854394
000070 c3 9a 8a bd e1 0f 7b be ef 20 85 be 54 3a 01 3e
       -0.067678 -0.24517776 -0.2600169 0.12619907
000080 a1 6f ef bd 40 92 d6 3f a3 83 54 be 1c ca 58 3e
       -0.116912134 1.6763382 -0.2075334 0.21170849
000090 5f dd e1 be cd cf f4 3e 5f 3e ec bf c7 53 88 be
       -0.44114205 0.4781479 -1.8456534 -0.26626417
0000a0 6a 29 ba bd c9 24 9d be 8f 95 f7 3e cc db cb bf
       -0.0908993 -0.30692127 0.48356292 -1.5926452
0000b0 2d 1a af be 1e d0 23 3d 8c c6 6d be 11 4e 41 3f
       -0.34199658 0.039993398 -0.23220271 0.75509745
0000c0 5d 39 61 bf 4f 72 9e bc 32 2a f2 bc 19 29 90 be
       -0.87978154 -0.019341616 -0.029561136 -0.28156355
0000d0 84 23 5e 3f f2 6b d3 bf 65 5b bb be 68 6e 3e 3d
       0.8677294 -1.6517317 -0.36593166 0.04649201
0000e0 df f7 32 3f 05 35 da 3f e8 13 bb bd db ba 83 bc
       0.6990947 1.704743 -0.09134656 -0.01608031
0000f0 e3 aa 11 bd e7 aa 7c 3d 35 4e 02 bd d3 07 11 be
       -0.03556336 0.061686423 -0.031812865 -0.14163141
000100 87 23 93 ba e7 b0 85 3a 8a f0 15 3e b2 eb ff bd
       -0.0011225798 0.0010199816 0.1464254 -0.12496127
000110 83 c2 61 3d 7e 00 44 be ae a4 1c 3e a4 8b 45 3d
       0.05511714 -0.19140813 0.15297195 0.048228875
000120 76 8d ca bc 6a b3 11 3e 0c 20 db bd 5d 49 d0 3c
       -0.024725657 0.14228597 -0.10699472 0.025425607
000130 5b f3 f1 bd 76 ab e2 3c 37 e2 cf bd 8d 3b 21 be
       -0.118139945 0.02766965 -0.10150569 -0.15745373
000140 7d 83 0b be 96 73 81 bd 02 63 a0 3d 92 3a ed bd
       -0.13624378 -0.063208744 0.07831384 -0.11583437
000150 72 31 00 3e 56 c7 73 bd 29 ca eb bd 00 f7 a5 be
       0.12518862 -0.059516273 -0.11513168 -0.3241501
000160 73 9f 6a be de de 39 3f 1c bb 08 bf 0e d7 81 40
       -0.22912388 0.72605693 -0.53410506 4.057502
000170 62 2c d2 be f8 f1 06 3e 34 da e6 be e9 07 2d 3f
       -0.41049486 0.13178241 -0.4508835 0.67590195
000180 09 4a 80 c0 72 d8 d0 bd 04 b3 8b be fa ed f1 be
       -4.0090375 -0.10197534 -0.27285016 -0.47251874
000190 da f7 dc 3e 5c c1 82 c0 40 c8 ce bd b0 43 05 3b
       0.43157846 -4.0861034 -0.100967884 0.0020334534
0001a0 05 50 e6 3c 36 b4 d3 3e e5 f9 b7 bf 5a df f5 bd
       0.028114328 0.41348428 -1.4373137 -0.120054916
0001b0 0a f0 60 be 9e ae 51 b9 bd d4 92 3f 7a ea 08 c0
       -0.21966568 -0.00019996843 1.1471173 -2.1393113
0001c0 6c 1f 06 be 74 1d 70 3d a4 28 a2 3e 3f ae 46 40
       -0.13097924 0.05862184 0.3167163 3.1043851
0001d0 08 91 86 bb cb 5d a8 bd 05 73 0c 3c 7c 16 80 3a
       -0.0041066445 -0.082210146 0.008572345 0.0009772326
0001e0 6f bf 1e 3f de 2d 1f 3c c0 18 70 bd b7 7d 82 3d
       0.62010854 0.009715525 -0.058617353 0.063716345
0001f0 40 5e 09 bf 6f 8f 22 bf d2 e1 90 be 6f 62 5a 3e
       -0.5365944 -0.6350011 -0.28297287 0.21326612
000200 65 0b 19 3e 3d f0 7f be e4 b5 d9 be 49 d3 04 3d
       0.14945753 -0.24993987 -0.42521584 0.03242806
000210 16 46 d1 3c 64 bc ac bc d6 26 36 be da b9 44 3e
       0.025546115 -0.021085925 -0.17788252 0.19211522
000220 de e5 6d be 2e 13 0d bd 98 20 34 3d 30 fe 24 3d
       -0.23232219 -0.03444212 0.043976396 0.040281475
000230 03 d5 78 3e c5 45 e4 bc ce ed 64 3d 15 45 2f 3f
       0.24300008 -0.0278653 0.05589085 0.68464786
000240 73 c4 0a bf a0 91 9c 3e 8d d4 1b 3e 84 24 c0 bf
       -0.5420601 0.30579853 0.152178 -1.5011144
000250 cd cf e8 bf 8e e8 bf 3f f8 5b 83 be 3c ce b4 be
       -1.8188416 1.4992845 -0.25656104 -0.35313594
000260 59 92 02 bd a5 d2 5c 3f 92 77 bf bf 47 8a 5f 39
       -0.03187785 0.8625892 -1.4958365 0.0002131845
000270 81 06 ae bd f8 57 68 3e 97 92 53 3f f3 03 e9 bf
       -0.08497334 0.22689807 0.82645553 -1.820433
000280 87 a6 8e be 98 d9 b9 be b5 d1 b2 bd 17 82 c1 be
       -0.27861425 -0.36298823 -0.08731405 -0.37794563
000290 5a 04 bb be 71 98 a6 be 01 a7 a5 be c9 63 93 bc
       -0.36526757 -0.3253818 -0.32353976 -0.017991917
0002a0 3f f1 a6 3c cb 20 53 bd ce 73 00 3e 3b d7 20 3f
       0.020378707 -0.051544946 0.12544176 0.62828416
0002b0 3f 6f 8a 3f 94 6a 8a bf c0 02 2f bd f4 db f9 bd
       1.08152 -1.0813775 -0.042727232 -0.12200156
0002c0 be a2 f0 3d ff b4 02 bd cb 82 a1 bd 53 95 41 be
       0.117497906 -0.031910893 -0.07886275 -0.18904619
0002d0 de 68 41 be 2f 5d 4b ba 73 fb 37 be 13 83 3d 3d
       -0.1888766 -0.0007757721 -0.17967014 0.04626758
0002e0 d3 3e 30 3e 4e 94 3d be b2 07 9d bd ef fa 08 3d
       0.17211466 -0.18513605 -0.076674834 0.033442434
0002f0 69 c9 16 be fc c5 1c bd e5 d2 38 3d e5 71 61 3d
       -0.1472527 -0.03827475 0.045123 0.05504026
000300 15 2a dd bd f8 15 08 be d9 1d dc 3d 48 e3 cc 3d
       -0.10799042 -0.1328963 0.107478805 0.10004288
000310 fc aa a5 bd 18 ea 0c 3e 7f 41 d1 bd ca 5e 8d 3c
       -0.08089253 0.13761175 -0.102175705 0.017257113
000320 f2 98 9c 3c 9c dd 04 3e 2a 89 38 3d fd ae c8 bd
       0.019115899 0.12975162 0.045052685 -0.09799001
000330 35 8b b9 bd 90 85 97 be 56 16 86 be aa 80 0a 3f
       -0.09059755 -0.29594088 -0.26188916 0.54102576
000340 3d 8a 07 be 2f db f2 3d 8f c0 9c 3d ba 6c 5c 3c
       -0.13236327 0.11858212 0.07653915 0.013453657
000350 4c f8 f3 be fa d8 5a be 20 5d 40 be 5d 35 29 3d
       -0.47650373 -0.21371832 -0.18785524 0.041310657
000360 11 8f be bd b9 3a 27 3c b4 f7 18 bd cb ee 10 be
       -0.093046315 0.010206872 -0.037345603 -0.14153592
000370 da 7c 5c bd 71 4a 1f be 14 f5 93 3d 8f 00 46 bd
       -0.053830005 -0.15555741 0.07224479 -0.048340376
000380 12 4c 3a be 51 ce c0 3d 64 77 db bd bf d7 08 be
       -0.18193081 0.09414352 -0.10716131 -0.1336355
000390 05 de 9c 3d dc e0 c1 3d 5d d0 ef 3d 4d 92 c2 be
       0.07659534 0.09466717 0.11709664 -0.38002244
0003a0 20 0a 5d bd e0 e4 71 bd 26 fb f6 bd 40 5d 55 3c
       -0.053964734 -0.059056163 -0.120596215 0.013022721
0003b0 9b 73 35 3e 78 60 b8 bd 2e af dd 3d ae 4f f6 3d
       0.17719881 -0.09002775 0.108244285 0.120269164
0003c0 68 d6 40 3d b6 74 1d be 04 67 d1 bd f8 f0 e5 bc
       0.047079474 -0.15376553 -0.10224727 -0.028069004
0003d0 ca a3 23 be 82 a0 c9 3d 35 39 38 be 71 3a 0b 3e
       -0.1598045 0.098450676 -0.17990573 0.13596512
0003e0 80 a6 79 3b 17 3c 10 be c8 5d f9 3c d8 d1 c3 bc
       0.0038093626 -0.14085422 0.030440226 -0.023903772
0003f0 6e 6c a5 3d 93 9f 0a 3e 45 54 33 3e dc 11 49 bd
       0.08077322 0.13537435 0.17512615 -0.049089298

fc1.bias f4 [512]
000000 aa d7 eb bd b2 e2 6c bc 79 93 7d 3d bd fb 1c be
       -0.11515744 -0.014458345 0.06190822 -0.15330406
000010 6f 53 9c 3c f7 0b bb 3e 38 77 41 be bc 54 ba 3c
       0.019082753 0.36532566 -0.18893135 0.022745483
000020 4b 8f fb bd 94 5a c9 3d 08 4e 46 be 7d 54 91 be
       -0.1228319 0.098317295 -0.19365704 -0.28384772
000030 a4 13 97 3d 1d 1c b0 bd a9 20 9d 3d 7b 31 95 bd
       0.07376793 -0.08599112 0.07672245 -0.07284828
000040 00 6d bb be d9 5f eb bc ce 4c ce bd 30 8d 13 bc
       -0.36606598 -0.028732227 -0.10073243 -0.00900583
000050 c6 df 96 be b8 54 8e be 6e f2 59 be 88 ac 0c be
       -0.294676 -0.2779901 -0.21283886 -0.1373769
000060 e0 52 e1 bc dd 69 68 be e3 49 37 be f4 0a aa be
       -0.027505338 -0.22696634 -0.1789928 -0.33211482
000070 0a be b0 be be c4 cf bd 7c 81 0c be 9c 7c e4 3d
       -0.34519988 -0.101449475 -0.1372127 0.1115658
000080 3d 9b 3f be aa 1d 2c bd 2c 03 87 bd a4 e8 05 3e
       -0.18711562 -0.042020477 -0.06592402 0.13077027
000090 4c ee c4 3d 55 39 58 bc bb ae 15 3c e1 d6 5e be
       0.09615764 -0.013197263 0.009135897 -0.21761657
0000a0 99 e5 09 3e a5 7b 99 be 84 ff 18 be 93 92 a7 bd
       0.13466491 -0.29977146 -0.14941221 -0.08182254
0000b0 74 7d 35 be fd 7f 3b bd ef 18 aa be 2d ec d9 3d
       -0.17723638 -0.045776356 -0.33222148 0.1064075
0000c0 e8 94 9d be 3c f3 e6 3d 1a 4a a4 3b d3 8e 30 be
       -0.3077767 0.11276862 0.0050137164 -0.17241983
0000d0 68 a8 37 3d f3 8b fc bc 10 62 df 3c cf 4f 04 be
       0.04483834 -0.030828452 0.02726844 -0.1292107
0000e0 bf b6 48 bc 37 0f 9d bd 8c 95 cc 3d 2e 09 5b 3d
       -0.012250601 -0.076689176 0.09989461 0.05347555
0000f0 d2 93 be be 88 99 ed 3d 94 1d 2a be 50 bc 7a bd
       -0.37222153 0.116015494 -0.16612846 -0.061214745
000100 fc e8 84 be 17 cd 51 bd 6b ed db be 18 c3 4a bd
       -0.25959003 -0.05122098 -0.42954573 -0.049502462
000110 98 25 bb bd 47 e4 06 3e 08 55 ad 3e db 1c ab be
       -0.0913803 0.13173018 0.33853936 -0.33420452
000120 be ff b1 be 56 3c 41 bd da dc d1 bd ae 73 39 be
       -0.34765428 -0.04717668 -0.10247202 -0.18110535
000130 77 ba 8a be 9b df 85 be 02 cd ad be f4 8f 1e bd
       -0.27095386 -0.2614716 -0.3394547 -0.038711503
000140 58 6c 6d be 82 ea 93 3d 1d 51 01 bd cc cc 91 be
       -0.23185861 0.07222463 -0.031571496 -0.2847656
000150 13 0b ad bd 17 c6 ba bd b5 ce 06 be 34 cf 46 be
       -0.08449378 -0.09119814 -0.1316479 -0.19414979
000160 d5 57 b2 be 61 5c 6d be 62 a8 8d 3c 37 85 d3 3c
       -0.34832636 -0.23179771 0.017292205 0.025820358
000170 95 46 04 3e 46 47 f4 bd 09 d1 51 be 31 92 37 be
       0.1291755 -0.11927657 -0.20489897 -0.17926861
000180 de 2c e4 bd c0 15 24 3d 82 43 9c bd 3e 4c 29 bd
       -0.1114137 0.040059805 -0.076300636 -0.041332476
000190 f3 d8 4a be 00 0a b7 39 a5 37 23 be e8 11 b3 bd
       -0.19809322 0.0003491193 -0.15939195 -0.0874365
0001a0 66 6e 2b be 49 14 8b bd de 30 3c be 75 d6 e7 bd
       -0.16741332 -0.067909785 -0.18378016 -0.11320201
0001b0 8d 6a 23 be 08 b1 29 3e c1 36 58 3d cb ac b4 3d
       -0.15958615 0.16571438 0.052786592 0.0882202
0001c0 21 ed d9 3d f4 35 b7 3c 10 31 a2 bc c2 57 4e be
       0.10640932 0.022364594 -0.019798785 -0.20150664
0001d0 fc 47 48 be 9c ed 49 be 58 4c 14 bd 70 82 c8 be
       -0.1955871 -0.19719547 -0.03620562 -0.39162016
0001e0 84 b6 c2 bd 7a 85 fe bd 60 82 20 bc b7 04 35 3e
       -0.09507468 -0.124278024 -0.009796709 0.1767758
0001f0 80 71 48 3c 92 11 42 be 3c cd 94 bd 53 51 44 bd
       0.012234092 -0.18952015 -0.07265708 -0.04792912
000200 00 e5 64 bd 4c 22 76 bd c7 29 1f bd 7b 1a dc 3e
       -0.055882454 -0.0600913 -0.0388582 0.42988953
000210 a0 a0 96 be fc 33 9a bd 99 1c 34 be c5 d6 a5 3c
       -0.29419422 -0.075294465 -0.17589034 0.020244012
000220 1c c4 4d 3e e2 8e 4a 3d c0 91 c1 bd 5f f5 ea bd
       0.20094341 0.04945267 -0.09451628 -0.11472582
000230 ee 5b 7f be 00 be 97 bc 57 d9 1a be e2 7e b1 be
       -0.24937412 -0.018523216 -0.15121971 -0.34667116
000240 a8 7e 89 3d bf bb 17 bb 0e 36 1e bd f0 d1 ec bd
       0.06713611 -0.0023152677 -0.03862577 -0.1156348
000250 a9 f2 26 be 67 c3 1c be bc 98 a8 bd 9d 39 52 be
       -0.16303505 -0.15308915 -0.08232257 -0.2052979
000260 76 1d 49 be 3e d1 44 bd 33 e9 9f be b7 40 30 bd
       -0.19640145 -0.04805111 -0.31232604 -0.043030467
000270 44 90 62 3c 8e 45 1f 3e 09 01 31 3d c2 3f c6 3d
       0.013828341 0.15553877 0.043213878 0.096801296
000280 bd de 70 be 46 83 85 bd b6 31 6c be eb 0c 1f 3e
       -0.23522468 -0.06519179 -0.23065838 0.15532272
000290 66 6a 40 be 0c 4b 0f be 11 7f b9 3d 3b 64 5c 3d
       -0.18790588 -0.13993472 0.09057439 0.053806525
0002a0 f2 48 40 3e f9 45 6e bd 8e a3 f1 bd bc 61 50 be
       0.18777826 -0.0581722 -0.11798774 -0.20349783
0002b0 82 0d d9 3d fe dc e9 bd a3 ac 39 be 47 e2 f7 3d
       0.105982795 -0.11419104 -0.18132262 0.12103706
0002c0 5f 43 29 be 17 00 cb 3d 80 3b b1 3a ab bc 06 be
       -0.16529606 0.099121265 0.0013521761 -0.13157909
0002d0 b3 1a 02 3e 37 5f 8d be 02 c9 8f bd 0f 1d 62 bc
       0.12705497 -0.27611706 -0.07020761 -0.013800873
0002e0 a9 be 8a b8 6d 00 d5 be c1 b2 41 be 54 f2 e1 bc
       -6.615866e-05 -0.41601887 -0.18915845 -0.027581371
0002f0 df 74 be be 4a 6d bc bd e8 f0 0e 3e 61 59 6c bd
       -0.3719854 -0.09200533 0.13959086 -0.057702426
000300 4f fc ca bd 02 47 92 be 7c ce fc bd 49 19 07 be
       -0.09911405 -0.285698 -0.12344071 -0.1319324
000310 84 77 2b 3c 0e e3 46 be 59 15 01 3e f8 56 69 3d
       0.010465506 -0.19422552 0.126058 0.056967705
000320 e1 d0 39 be b8 f0 0f be 17 84 12 be 43 1d 73 be
       -0.18146087 -0.1405667 -0.14308201 -0.23741631
000330 9f cd c2 bd 02 d6 2d be a0 ee e2 bb 30 8b c5 3c
       -0.09511875 -0.16976169 -0.006925419 0.024114221
000340 e0 3d 0f bd 07 56 57 be ba 76 07 be 30 67 10 bd
       -0.034971118 -0.2102891 -0.13228884 -0.035254657
000350 6f 46 bd bd 16 70 7c be c8 de c8 3c 03 e9 4d bd
       -0.0924195 -0.24652132 0.024520293 -0.050271045
000360 75 50 16 be e5 ff ea 3d cb 45 a3 be 98 60 b8 bd
       -0.1467913 0.11474589 -0.31889185 -0.09002799
000370 fa 80 7a be 43 6c 8e bd 48 02 37 bd 88 fc 9c bd
       -0.24463263 -0.06954243 -0.04467991 -0.07665354
000380 78 95 9c be 24 21 a0 bd 82 53 49 be 0b 65 0c be
       -0.30582786 -0.07818821 -0.19660762 -0.1371042
000390 76 dd 3c be e9 17 f9 3d b9 b8 1a be 7f 50 7b bd
       -0.18443856 0.121627636 -0.15109529 -0.061356064
0003a0 fd 91 af be 70 8e 13 3d 7a 12 30 3d 37 b5 0d be
       -0.34291068 0.03602451 0.04298637 -0.13838659
0003b0 3e 59 11 be eb c1 6e bd 88 14 81 bc 1e 69 da 3d
       -0.141942 -0.058290403 -0.01575686 0.10664581
0003c0 6e f6 59 be ce e2 d3 bd 38 c7 27 bd 32 c9 0b be
       -0.21285412 -0.10345994 -0.040961474 -0.13650969
0003d0 7c 5f 01 3d 29 91 e3 bc e4 98 03 be bb 1f 08 be
       0.0315852 -0.027779179 -0.12851292 -0.13293354
0003e0 1c 2f 52 3d fb 44 31 bb 8f 6f aa bd d3 b8 5a be
       0.05131446 -0.0027049172 -0.08322059 -0.21359567
0003f0 03 d0 8d 3e 1a 89 e6 bd 44 75 11 3d 37 48 c9 bd
       0.27697763 -0.11256619 0.035512224 -0.09828227

fc2.weight f4 [9, 512]
000000 76 3d c7 3c e9 91 71 bd 6e 48 da bc dd fe ae c0
       0.024321299 -0.05897704 -0.026645865 -5.4686112
000010 bf ed 27 3d 00 0f 7b 3d 10 14 0f bc 10 8a 70 3d
       0.040998217 0.061293602 -0.008732811 0.058725417
000020 ee d5 b7 3c 45 c9 d2 3e 13 14 98 bf f9 f7 a9 c0
       0.022440877 0.4116918 -1.1881126 -5.31152
000030 ab 41 a9 bc 99 b9 3f 3f 71 1d 15 bd 3a 30 e4 3c
       -0.020661196 0.74892575 -0.03640503 0.027855027
000040 46 4a c3 c0 aa e5 83 bf dc 6d a9 3e 68 4a f0 3b
       -6.1028166 -1.0304463 0.3309163 0.0073330887
000050 aa 5c 11 c0 5c c7 81 bf 6e 11 9a c0 c9 7c cb c0
       -2.2712808 -1.0138965 -4.8146276 -6.3589826
000060 d5 c4 2d 3d a6 98 e2 3e a8 8b f8 bd 87 9a 35 3c
       0.04242404 0.44257087 -0.12136012 0.0110842055
000070 e3 c8 e8 bf 26 85 bf 3e 00 b2 6c ba 33 50 5d bf
       -1.8186306 0.37406272 -0.00090292096 -0.864505
000080 a6 71 c8 3c 91 07 66 bf 04 d2 2f 3c 2d ce 00 3d
       0.024468254 -0.89855295 0.010731224 0.031446625
000090 e7 57 e2 3d c3 dd 30 3f b3 fe 5e 3b 23 66 d3 bd
       0.11051922 0.6908838 0.0034026324 -0.103222154
0000a0 a8 7f 02 bd 10 9f 15 3e 00 3c 81 bc 6e 42 6a 3d
       -0.031860024 0.14611459 -0.01577568 0.05719226
0000b0 00 7c f6 b8 ac bc 8e bf 82 3f ad c0 7f 02 76 bc
       -0.00011753291 -1.1151328 -5.4140024 -0.015015244
0000c0 0c 83 3a bf e1 e1 21 3e 2e b7 2b 3e 74 09 4e bc
       -0.7285621 0.15808822 0.16769096 -0.012575496
0000d0 1c b3 54 bf ab 93 77 3f a3 d4 26 3f eb 9a 9b bd
       -0.830858 0.967097 0.6516821 -0.07597908
0000e0 1f 34 59 be 7e 35 42 3f 4a f8 96 3c ce b7 10 be
       -0.21211289 0.7586287 0.01842894 -0.14132616
0000f0 dd 4b fa 3d 0b 25 88 3f 90 85 05 bd 75 c0 b1 3e
       0.12221501 1.0636305 -0.03259808 0.34717146
000100 af e8 81 3e 8e c7 ac bd 66 6c 8f bf 08 06 95 3c
       0.25372836 -0.084364995 -1.1204956 0.018191352
000110 5c b5 c8 3d bd 2e b6 be ba 99 2f bf a6 0a 93 3d
       0.098002166 -0.35582533 -0.68593943 0.071797654
000120 a7 f2 30 bd 4d 9d 4b 3c 3e 56 d7 bc 66 72 92 c0
       -0.04320016 0.01242764 -0.02628624 -4.5764647
000130 ec e2 2b 3e 00 8b 04 bf 33 84 73 bf 98 92 11 bf
       0.16785783 -0.517746 -0.95123595 -0.5686431
000140 94 06 dc 3d 67 23 0f be e7 a2 1f bf b3 c9 a2 3d
       0.10743442 -0.13978349 -0.62357944 0.07948627
000150 45 2d d9 3c c0 14 e0 ba 40 f3 0f bc de 64 14 3d
       0.026510844 -0.0017096028 -0.008786023 0.036229007
000160 59 58 2c c0 c8 d3 b4 ba 49 ff 34 3d e4 2e 96 3e
       -2.6928923 -0.0013796026 0.04418877 0.2933265
000170 72 c2 3f 3d e2 b3 b0 bf 60 c2 7e 3b 30 62 9f 3b
       0.046816297 -1.3804896 0.003887318 0.004864
000180 5a b9 11 bf f2 44 5e bc 77 b8 4a 3f 8c f1 c0 bd
       -0.5692345 -0.0135662425 0.7918772 -0.094210714
000190 51 02 b7 3e 38 2d 41 bc 66 2e df 3c 45 66 17 bf
       0.35743955 -0.011790566 0.027243804 -0.59140426
0001a0 22 f7 08 3f ac 14 c5 3d 12 68 5a c0 a7 38 fb 3e
       0.53502095 0.096230835 -3.412602 0.4906666
0001b0 fb 55 83 3d 2b b0 65 3f 99 6a d3 be 2e ce 4c 3e
       0.06412884 0.89721936 -0.41292265 0.20000526
0001c0 31 ba 9d 3c ac 48 04 c0 3d 60 31 bd cc b6 25 3c
       0.019253822 -2.0669355 -0.04330467 0.010114383
0001d0 7e aa 7b 3c c1 16 de 3d 90 36 52 3b c5 9d 3f c0
       0.015360473 0.10844184 0.0032075979 -2.9940045
0001e0 07 03 a8 bf f3 2b ba bf 68 04 df 3b 03 49 fc bc
       -1.3125924 -1.4544662 0.006805945 -0.030796533
0001f0 fe 2b f3 bc 82 a7 ba 3c 01 09 51 3f 2f 52 55 3f
       -0.029684063 0.022784952 0.81654364 0.8332853
000200 8e 66 e2 3c d2 64 08 bf be 7a 9e bf cb 1b be 3e
       0.027636793 -0.5327884 -1.2381208 0.3713058
000210 c0 10 8c c0 09 bf 51 3e b4 93 08 bd 22 72 36 bf
       -4.3770447 0.2048303 -0.033343986 -0.712679
000220 e9 ed 32 bf 60 27 ee bc f8 45 0c be 80 d4 00 3c
       -0.6989427 -0.02907151 -0.13698566 0.007863164
000230 cf 4f 99 3e ee 41 96 bf ad 8c 0f bd c7 fc 94 be
       0.29943702 -1.173887 -0.03504627 -0.29099104
000240 93 bd c5 3b 33 3a 00 3d 57 2a b2 bc 39 6a 12 bd
       0.006034562 0.031305503 -0.021748705 -0.035745833
000250 dd 44 75 3f c6 10 f8 bc c0 08 5b bc db 31 be bd
       0.958082 -0.030281436 -0.013368785 -0.09286853
000260 0d 25 ab 3f ba e6 a9 3f 9c c9 bb bf 46 02 a1 3e
       1.3370682 1.3273537 -1.4670901 0.31447047
000270 8f b6 53 3f eb b4 7d bf 0b df 20 3d 34 00 b4 bc
       0.8270044 -0.99104184 0.03927521 -0.021972753
000280 70 20 ac c0 3d a1 07 3d 59 4a 70 bf f6 c4 8d bf
       -5.3789597 0.033112753 -0.93863446 -1.1075733
000290 ca e4 97 bf d6 d2 26 3f 8e 22 fb 3c 74 87 b2 bf
       -1.1866696 0.6516546 0.030656125 -1.3947587
0002a0 5e 52 70 3e 6e 9b dd 3c 72 d5 b9 3c c3 87 a4 bc
       0.2346892 0.027051654 0.022684786 -0.020084267
0002b0 62 8a 9e 3c 16 d9 25 3f c6 d9 12 bf 68 94 d2 bc
       0.019353095 0.6478437 -0.57363546 -0.025705531
0002c0 c0 92 86 bf 7a 80 af 3e 68 f3 d6 bb b8 21 c8 3e
       -1.0513535 0.34277707 -0.006559778 0.39088225
0002d0 38 c6 88 3b 37 be 40 3e ca 62 d4 bc 96 01 e7 3c
       0.00417402 0.18822561 -0.025926013 0.028198998
0002e0 74 31 91 be 0c 84 f9 be 20 df dc 3a 74 ef 6f 3e
       -0.28358042 -0.48733556 0.0016851164 0.23431188
0002f0 b2 a0 57 c0 88 31 c0 3d 2f 5e 4d bf 37 a3 95 3e
       -3.369183 0.09384447 -0.8022184 0.29226086
000300 37 0f 30 3e 44 b3 f0 bf c3 a4 8a bd bc 1e 4b bc
       0.17193304 -1.8804708 -0.06769707 -0.012397464
000310 f3 23 93 3d a4 7a 47 be ee 69 ca 3e 5f 54 30 bd
       0.07184591 -0.19480377 0.39533943 -0.043049213
000320 bb 09 e9 bf cc dd e4 bc 9a 63 a4 3c e7 7a b1 3e
       -1.8206095 -0.027937792 0.020067025 0.3466408
000330 99 82 06 bb fb 84 b5 bf 24 f7 28 3c 7f c4 16 bf
       -0.002052462 -1.4181207 0.010312829 -0.5889358
000340 90 c4 d1 bc 83 c6 d0 3e f2 7d e8 3c 40 fa 6f bb
       -0.025606424 0.40776452 0.028380368 -0.0036617666
000350 21 f5 a3 bf 8b c5 87 bf 29 21 ad 3f 71 f6 88 3b
       -1.2809182 -1.060716 1.3525745 0.0041797687
000360 9a 6b 3e 3e 5b ba c3 be 8b 3e b7 c0 0d f3 6d bf
       0.18595734 -0.38228115 -5.7263846 -0.9294899
000370 18 b7 09 bf d3 b3 8c bf 78 7d eb bc f9 e7 2b bd
       -0.53795004 -1.0992378 -0.028746352 -0.041969273
000380 81 be 94 be a0 19 02 3b a9 24 b3 3f b2 ee 41 bf
       -0.29051593 0.00198517 1.3995563 -0.75754845
000390 80 c5 60 bc 37 5f e6 3e 05 7a c9 be 85 32 d2 ba
       -0.013718963 0.44994518 -0.39350906 -0.0016036785
0003a0 2b ba 40 bf 52 2d 8f 3b 2b 43 3d bf be bd c6 3e
       -0.7528407 0.0043694163 -0.73930615 0.38816637
0003b0 bb af 31 bd 46 3a bb be 6d dd bd bc 76 62 90 bc
       -0.04338048 -0.36567897 -0.023176873 -0.017625075
0003c0 c0 69 e4 bb f9 65 14 bd ee 54 c7 3c 3f 4a d1 be
       -0.006970614 -0.03623006 0.02433249 -0.40876958
0003d0 8c 57 ee bc e5 e8 54 3e 56 51 00 bf a7 a0 9b 3d
       -0.02909448 0.20791967 -0.5012411 0.075990014
0003e0 39 ec 1a 3d a0 2e 1f bd b5 eb 06 3f 5e 82 a5 be
       0.037822936 -0.038862824 0.5270341 -0.32326025
0003f0 c9 2f ca 3e 91 eb 8d be 7d 8c 8c bf d7 a9 dc be
       0.39489582 -0.27718785 -1.0980374 -0.43098328

fc2.bias f4 [9]
000000 4d a8 9b 3e d3 1c 8a 3e 09 59 99 3e 4c be 90 3e
       0.3040184 0.26975116 0.2995074 0.28270185
000010 68 09 cc 3e 6e a7 9b 3e e6 f3 5a 3e 2a b7 cc 3e
       0.39850926 0.30401176 0.21382102 0.39983493
000020 ce 15 c9 3e
       0.39274448
