hdqn/meta_controller.pth (torch, 73119 bytes, 4 tensors)

fc1.weight f4 [512, 25]
00000000: 097a 4cbe 548e 1fbd 5530 ec3e 03b0 5d3d
00000010: a9dc 073f 0b81 7c3d 8e31 c7bd 60f7 623d
00000020: 880a 01bf 4c69 c4bf 2a44 5b3e a7e0 c9bf
00000030: a872 c9be 02d6 40bf dfbb 953f afdc 0c3e
00000040: f282 cbbe 16e6 3dbe a2b3 9cbf e394 233f
00000050: da80 23be 25bb 12bf 7321 1dbf bea2 a8bf
00000060: f48b 0bbf 2f60 fabc 7e00 fe3d 6b15 80be
00000070: 1f80 cb3d f6b5 e4be 6a08 24be b47a 933d
00000080: c296 88bf db28 00bf e8e8 6fbe bc84 12bd
00000090: be71 993d 56d0 f4bd 2578 1fbf 69d4 43be
000000a0: 7fd3 f03d aeb7 b23e 9934 e6be 092e 003e
000000b0: f226 b8bf 314a b9bc 48ad 743e 9873 5abd
000000c0: 5ace ab3d 72a8 b93e 05e6 cebd 7d05 15be
000000d0: 518e 3cbc 6264 13be 53be 6d3f a646 a7bd
000000e0: 5a3c 853e adac 9fbf 8ca5 873e 13d2 c6be
000000f0: 804e 1a3e 050d 823f 8924 c7bd 9f7f cc3e
00000100: eaf0 f7be d5f3 d43d 6589 4cbf 2ab8 e23e
00000110: ecb0 b0bd ec7b 5040 47d1 efbd dffd 49be
00000120: 4c61 f93d 4895 b83e 64e5 6fbf a0c3 28be
00000130: c71b dabd 2466 92bd 4ec4 843d db19 303e
00000140: 0856 16be 5a43 0ebe e187 1b3e 5332 043e
00000150: 30ce f5bc 2840 2f3d 6e41 873d 9424 1a3d
00000160: 1a8f cc3d dadc 4abe 1a2f efbd a85e 0bbd
00000170: 64f4 523d 304b ddbc f451 583d c8a1 69bd
00000180: 38a6 45bd c4c9 94bd 8df0 34be 6432 5e3d
00000190: 2119 413e 29d8 433e fad5 de3d de1d 283c
000001a0: f449 673e e120 90bd 1f06 dbbd 101d dabf
000001b0: 01f3 2abf 4642 13c0 5aac af3d 3377 1dbe
000001c0: 7066 c5bb 55f4 e6be 85ba 54bf 69b4 47be
000001d0: 7791 bfbc 254b a23c d360 b7be ad27 a0bf
000001e0: bedb 7cbe 0d24 9d3d 0437 a1bc e429 33be
000001f0: 7a27 d5be 7946 fc3d 04b4 963d bb78 adbe
00000200: fcb4 1e3f faec cdbf 71c0 0d3e 22a0 9bc0
00000210: f93e b03c 5103 0ec0 bcd5 b03f f490 f53c
00000220: 5178 3dc0 9fd3 953d b238 f5bf d28e b83f
00000230: cd56 82bd 119f a0be 9754 e6bd 8dc0 f3bf
00000240: aa44 6740 cbe1 933d 536f 37bd 58f2 e2bd
00000250: ab9e 17c0 e33e a93e bb80 2a3e 6933 293e
00000260: 000b 92bd 489a a8be d228 f1bd c14c 123c
00000270: 4877 563d 9f94 a3bd 35d0 da3e 2ccb a53e
00000280: 56bf f4bd 0728 48c0 0005 8d3f 6bb0 2e3f
00000290: 7ca4 0fbf 7b33 193e 3fff 70be a241 81bc
000002a0: 1562 703f e8dd 06bc 8e3a 323e 45f6 60be
000002b0: 9727 463d ea0b 4f3f cfa8 d2be e926 b93d
000002c0: 5b61 57bd 246b 35be abd0 5b3d 4535 31bf
000002d0: ef47 2f3c 9dc2 14be 68db 083c 366d bdbf
000002e0: c5af 0c40 2281 193e cf76 d4c0 8dc2 22bf
000002f0: 7a35 f1bf c9a6 0540 76ca c03a 3e07 adbf
00000300: 8755 483d 3aca 87bf 79fb 5abe 38d5 acbd
00000310: ab20 d6bd 53fe bebd 61c9 6dbf 8c23 71bf
00000320: 4960 7cbd 4722 71be 8fbf 133f b880 3abd
00000330: c110 2340 84a7 a1be 616b b13e 133c 003f
00000340: 9298 a7be 93f6 1abf aba8 f1bd c6d8 43c0
00000350: fd46 92bf d212 30be 573a c5bf e679 db3c
00000360: f657 583e b1a1 12be cd3d 8bbe 4e10 afbf
00000370: 57c2 5a3c 4956 f8be ceb8 f1bd 9b01 36be
00000380: 64ae 96bf 9619 0ebd 28aa 12be 6236 083d
00000390: 8e74 2e3e adfa 13bf 7d0f d93d 633e f0bf
000003a0: f41b 0b3f 7c93 babf ab11 1c40 78be 77bd
000003b0: 443f 38c0 0031 6fbf c83a b4bf 4f38 9e3f
000003c0: a86d 10be 941e e13d 34d2 2ebe 9c23 a7bf
000003d0: 9412 253f 8349 903d 855a c4bd e1ab afbd
000003e0: bf62 86bf 7397 e83e 9a65 d73c a269 833d
000003f0: 9d75 eebd 73f7 4ebf ab3f 4ebf daaf 2cbe
-0.19968428 -0.038954094 0.46130624 0.054122936 0.53071076 0.061646502 -0.09726249 0.055411696
-0.50406694 -1.5344634 0.21412721 -1.5771683 -0.39345288 -0.7532655 1.1697959 0.13756059
-0.3974834 -0.18544802 -1.224232 0.6389906 -0.15967122 -0.5731681 -0.61379164 -1.3174665
-0.54510427 -0.030563442 0.124024376 -0.2501634 0.099365465 -0.44670075 -0.16018835 0.07201138
-1.0671008 -0.5006234 -0.2342869 -0.035771117 0.07492398 -0.119537994 -0.622927 -0.19123997
0.1175909 0.3490576 -0.44962004 0.12517561 -1.4386885 -0.022618385 0.23894227 -0.053332895
0.08388968 0.36261326 -0.101024665 -0.14552875 -0.01150854 -0.14393762 0.92868537 -0.08167772
0.26022607 -1.2474571 0.2649349 -0.3883215 0.15069008 1.0160223 -0.097237654 0.39941117
-0.4842599 0.1039807 -0.7989715 0.4428113 -0.08627495 3.2575636 -0.11709838 -0.1972575
0.12176761 0.36051393 -0.937094 -0.16480875 -0.10649829 -0.07148388 0.06482755 0.17197363
-0.14681256 -0.1389288 0.15188552 0.12909822 -0.030005544 0.042785794 0.066042766 0.03763254
0.09988232 -0.1981081 -0.11678906 -0.034025818 0.0515026 -0.027013391 0.05281253 -0.057039052
-0.04825422 -0.07265046 -0.17669888 0.054247275 0.18857242 0.19125427 0.108806565 0.010261027
0.22586805 -0.07037521 -0.10694527 -1.7040119 -0.66777045 -2.30092 0.08577795 -0.15377502
-0.0060241744 -0.45108286 -0.83097106 -0.19502415 -0.023384793 0.019811222 -0.3581606 -1.2512108
-0.246932 0.07672892 -0.019679554 -0.17496449 -0.4163168 0.12318129 0.07358554 -0.33881173
0.6199491 -1.6087945 0.13842942 -4.8632975 0.021514403 -2.2189524 1.3815227 0.029976346
-2.9604685 0.07315754 -1.9157927 1.4418585 -0.06364212 -0.31371358 -0.11246603 -1.9043137
3.613566 0.07220801 -0.0447839 -0.1108138 -2.3690593 0.3305579 0.1665067 0.16523518
-0.07131004 -0.32930207 -0.11775364 0.008929432 0.05235985 -0.079873316 0.42736974 0.3238157
-0.11950557 -3.127443 1.1017151 0.6823794 -0.5611036 0.14961044 -0.23534869 -0.015778366
0.9389966 -0.0082316175 0.1740515 -0.21968944 0.0483776 0.80877554 -0.41144416 0.09040625
-0.05258308 -0.17716652 0.0536658 -0.6922191 0.010698303 -0.14527364 0.008353092 -1.4798954
2.1982281 0.14990667 -6.639503 -0.6357811 -1.8844445 2.0883048 0.0014708776 -1.3517835
0.04890969 -1.060859 -0.21384992 -0.08439106 -0.1045545 -0.09325852 -0.92885405 -0.94194865
-0.061615262 -0.23548232 0.5771417 -0.045532912 2.5478976 -0.31573117 0.34652236 0.50091666
-0.3273359 -0.6053249 -0.11799749 -3.0601058 -1.1427914 -0.1719468 -1.5408429 0.026791524
0.21127304 -0.14319493 -0.27195588 -1.3676851 0.013351998 -0.4850333 -0.11802827 -0.1777405
-1.177197 -0.03469237 -0.14322722 0.03325499 0.1703665 -0.57804376 0.10598657 -1.8769039
0.5433953 -1.4576259 2.4385784 -0.06048438 -2.8788614 -0.93434143 -1.4080439 1.2360934
-0.1410433 0.109921604 -0.17072374 -1.3057742 0.6448147 0.07045271 -0.09587578 -0.08577705
-1.0498885 0.45428047 0.026293565 0.06416632 -0.11643527 -0.8084633 -0.805659 -0.16863957

fc1.bias f4 [512]
00000000: 8705 0bbe 0abd 213e cbe2 6e3d 4bc7 443e
00000010: 6a97 b0bd 97bc 4cbe 193c 4c3e a29f e23c
00000020: ec94 10be 1109 c7bd 72f4 36be 6f07 49be
00000030: 6ac0 a6bd fbb7 2dbd f99e 2c3e fef6 f53b
00000040: 5963 5c3d 9463 b13d 64d7 9bbd f023 70bd
00000050: 4f9f 78be bd77 8ebd a4ba 043e 2132 f5bd
00000060: 81d9 b3bd 820a 14bd 7401 063c a824 78be
00000070: 3244 323e 0da4 debd cb4b 3cbe d4dc 6bbe
00000080: db9c 00be 80ec dfbd 974b 82be 51c1 62bd
00000090: e84d 71bd e592 22be cf91 893d c84e 8a3d
000000a0: 9953 dabd 1554 6bbe ed53 d9bd 86e3 05be
000000b0: 08f7 d7bd cd46 bf3d 2c69 4fbe d8e7 bebd
000000c0: 0326 a7bd 38c8 10be a325 c43d 9784 82bd
000000d0: 484a 14be 1bed 96be c1bc 62be 800f 06be
000000e0: af41 ab3d 915d bfbd 0868 6a3c 60fd 33bd
000000f0: 57a7 b63d b92b 12be f759 7abe 1550 35bc
00000100: 242c 253e b747 183e 7568 ba3c 2494 ed3d
00000110: 515f 55bd 8b69 e7bd 6dca 413d 5946 a63d
00000120: 083a 7abd 77e2 18bc 9c99 043e a826 d43d
00000130: 8eea 68bd df9c 05be 819a 94bd 4ff0 a3be
00000140: 4ed1 1ebd dc2d f8bd 9b61 00be 0fba 3abe
00000150: ed8e 2bbe dc0a cabc 8a04 8c3c 84ab 86bd
00000160: 90f1 c7bc 2df9 a3bd 230b 2ebe 4467 b4bc
00000170: c612 133e 2602 dcbd 14db 033e 2a89 05bb
00000180: a09d 3ebd 46ae dcbd 6d66 c33d d626 29be
00000190: f186 ed3c 32e4 86bb d84f 7dbc 80b0 03be
000001a0: b4e9 da3d 09ae 673d 8399 0abc 0b4c 46bd
000001b0: 898f d13c ad61 0bbe bb69 3fbe 2853 e63c
000001c0: c4b1 39be 02cb 8c3d b618 fa3d 5378 3c3e
000001d0: b76e 49be 9358 d9b7 4439 1cbe 2f63 703d
000001e0: 2296 e5ba d450 fbbc 2245 623d 689a 48bd
000001f0: 5f78 afbd 14a4 a63d 39be bebd 9b1f 62bc
00000200: 4fb9 e3bd dcdc c5bd 18ee 7ebe 52c6 e43b
00000210: 886e abbc 6a96 813e e8f7 ebbc 86a8 213d
00000220: 5582 3bbe 31be 86bd 04a1 563e b7bd c4bd
00000230: 002a 343e 7dc3 1c3e 5f7f 27bd 38b5 f33c
00000240: 1a5a 933e 29ce bebd a5e3 483e d54b 8abe
00000250: 9289 49be a288 383e 5f58 e6bd 8839 343e
00000260: 92c2 273e c4ae 913b f1bb 45be 1998 00bd
00000270: 4932 06be d32b 7c3e 26d2 213d 66d3 7dbe
00000280: d0b3 21bc 5377 74be 5251 78bd 1af1 33be
00000290: 5316 59bd f6d9 e5bd 331f 6cbe 63bc 8b3e
000002a0: a971 95be 4bd2 033e cc24 4b3d b7d1 bd3d
000002b0: 6528 39be 7af3 0b3c fa44 a43d 5b70 373d
000002c0: 7e8b 573c afe3 80be 640c 28be 183c aabd
000002d0: ee34 8e3d d277 8fbd 9efd 83bd eea9 b53d
000002e0: a57f 5fbe f82a 8dba ac75 0ebe 4983 02be
000002f0: feb2 633e 996e d9bd 63eb 71be 8135 14bc
00000300: ab07 96be 718f cfbd 7b5e 573d cafa 82bd
00000310: 9e1b d63d 0f64 e43c 4a9a e13d 2835 b4bd
00000320: ace3 6dbe 69fa d63d 58c9 1cbe a694 053e
00000330: f90c 94bd 4f05 0f3e daf2 c3bd e69c 893c
00000340: 9a4e 09bd b47b 223e a860 aa3c 225f f0bc
00000350: ef72 4ebd f0c7 2fbe 94f6 7e3d 3d12 e33d
00000360: c8d9 1fbd f813 1c3d ac71 22be f2aa 9b3d
00000370: bfbf 0c3e e043 0fbe 1a21 cfbd 8006 eb3a
00000380: 781f 5cbd 0663 0fbe 97cc c8bd 37b0 be3c
00000390: 6923 19bd 7aba 3dbd e4e6 00be d372 50be
000003a0: bdd1 823d d781 8b3e a67f 0abe ae3f cfbe
000003b0: 3de2 d9ba d9b1 f33d 61ac 603e 314c a0be
000003c0: 4c58 fdbd c4db 813d fdcc 86bd 5c66 113e
000003d0: 0822 23bd 7ce4 53bc c6ae 9fbc ead0 f8bd
000003e0: 536e 8fbe 98cb 74bd 0f13 96be 3455 52be
000003f0: 52df 423d 0e4d cb3d dfce 983d 23ed 983c
-0.13576327 0.15794769 0.058321755 0.19216649 -0.0862263 -0.19993816 0.199448 0.02766401
-0.14119309 -0.09718526 -0.17866686 -0.19631742 -0.08142169 -0.042411786 0.16857518 0.0075062504
0.053805683 0.08661571 -0.07609442 -0.058628023 -0.24279521 -0.06956432 0.12961823 -0.11972452
-0.0878172 -0.036142834 0.008179057 -0.24232733 0.17408827 -0.10871134 -0.18388288 -0.23033458
-0.12559836 -0.10933781 -0.25448295 -0.055360142 -0.058912188 -0.15876348 0.06717264 0.067533076
-0.10660476 -0.22981293 -0.10611711 -0.13075075 -0.10545164 0.09339676 -0.20254964 -0.093215644
-0.08161547 -0.14138877 0.09577491 -0.06372946 -0.14481461 -0.29477772 -0.22142316 -0.1309185
0.083621375 -0.09344018 0.01430703 -0.04394281 0.08918636 -0.14274491 -0.24448381 -0.011066456
0.1613012 0.14871107 0.022754887 0.11600521 -0.052092854 -0.112994276 0.04731219 0.081188865
-0.0610905 -0.009331337 0.12949222 0.103589356 -0.056864314 -0.13048123 -0.07256032 -0.32019278
-0.038773827 -0.12118122 -0.12537234 -0.18235038 -0.1675374 -0.024663381 0.017092008 -0.06575683
-0.024407178 -0.08006511 -0.16996436 -0.022021897 0.1436263 -0.10742597 0.1287654 -0.0020375946
-0.04653704 -0.107754275 0.095410205 -0.16518721 0.02899501 -0.0041165585 -0.015460931 -0.12860298
0.106891066 0.056562457 -0.008459452 -0.048412364 0.025581138 -0.13611479 -0.18692677 0.028115824
-0.18134218 0.06874658 0.122117445 0.18405275 -0.1967114 -2.5909661e-05 -0.1525622 0.05868834
-0.0017516057 -0.03067819 0.05524171 -0.04897538 -0.08567881 0.08136764 -0.09313626 -0.013801481
-0.11119329 -0.09661266 -0.24895513 0.0069816494 -0.020926729 0.2531007 -0.028804734 0.039467357
-0.18311436 -0.06579245 0.2095986 -0.09606498 0.17594147 0.15308948 -0.040892955 0.029749498
0.2877968 -0.09316666 0.1961809 -0.2701098 -0.19681385 0.18020871 -0.11247324 0.17600071
0.16382816 0.0044458825 -0.19309975 -0.03139505 -0.1310512 0.24626093 0.039507054 -0.24787673
-0.009869531 -0.23873644 -0.060624428 -0.17572442 -0.052999806 -0.112232134 -0.23058777 0.27292165
-0.29188278 0.12873189 0.04959564 0.092685156 -0.18081816 0.008541936 0.08020969 0.044784885
0.013155816 -0.2517371 -0.16410977 -0.08312243 0.06943689 -0.07005276 -0.06444858 0.08870302
-0.21826036 -0.0010770252 -0.13912076 -0.12745394 0.22236249 -0.10616798 -0.23624949 -0.009045959
-0.29302725 -0.10134781 0.052580338 -0.063954905 0.10454486 0.027879743 0.110157564 -0.08799201
-0.23231381 0.10496981 -0.15311182 0.13044986 -0.07229037 0.13966869 -0.09567805 0.016798448
-0.033522226 0.15867501 0.020798042 -0.029342238 -0.050402578 -0.17166114 0.062246874 0.11087463
-0.03902605 0.03810498 -0.15863675 0.076009646 0.1374502 -0.13990736 -0.101137355 0.0017931014
-0.05374095 -0.14002618 -0.098046474 0.023277385 -0.037387285 -0.046320416 -0.12588078 -0.20356302
0.06387661 0.27247497 -0.13525257 -0.4047827 -0.001662321 0.11899156 0.21940757 -0.3130813
-0.12370357 0.06340745 -0.06582067 0.14199203 -0.039827377 -0.012932893 -0.019492518 -0.12149222
-0.28013858 -0.059764475 -0.29311416 -0.20540315 0.047576256 0.099268064 0.074613325 0.018667763

fc2.weight f4 [9, 512]
00000000: 68e0 2cbd 09b4 893c 3b36 a4be 5269 c13c
00000010: dd6d 87be dad9 a03f fccc 533f c510 5440
00000020: de58 34bf 8481 18bf d2bd 8ebf ee93 e03c
00000030: 4964 16bd a74d bdbc 8667 6f3d 6b86 afbf
00000040: 591f 83bc 6a7b e3be 67ac e9bc 3f16 87bf
00000050: 7ebb cb3e c9ff 4dbd 9f5e 05c0 2e90 63bf
00000060: be2b 90bf 1068 923c 6e08 e6bf 1b9f 97bf
00000070: 483d a7bf 9c80 46bc dc01 1dbd 5c8c dabe
00000080: 2eb0 0bbd d89b 29bc ab60 4fbf 4326 813b
00000090: aa79 ff3c 99a7 233d 0ed8 b13d 83ae ffbe
000000a0: 330f b23b b99a e3be 1368 82bc 0c14 973b
000000b0: e662 a43d d778 193f 8219 0f3f a467 7f3f
000000c0: aad2 f23c 1051 32bc 560c 89be d0a7 ab3e
000000d0: d036 17bb 18af 0f3f 5ee2 09bd 3509 debc
000000e0: f0ae 69bf 50ef dbbd ea09 ccbe 4a3b d0bc
000000f0: 177b a5bf 762f 8340 73c5 95bf 0642 033f
00000100: ac64 21bd 9e43 15be a839 493f 5241 d53d
00000110: dced cc3e 7cb4 98bc d6ea aabf 460e b63e
00000120: 6e84 49bf 5cb3 543e cb13 d83e efad 2dbf
00000130: bea2 723e f031 7dbf 29d7 99bf da3c 41bd
00000140: a774 31be 5289 e0be e34e 713f 8054 21bd
00000150: 087c 1dbc aa0b d93e 6c88 6f3e 69cd e43f
00000160: f542 243d 23dd 483f c4ab 09bc 9062 8c3d
00000170: 5955 c53d 46b2 9e3c b555 82be fbf4 033e
00000180: 9fec 193d 7f64 5ebf ff72 de3f 4fb2 d1bc
00000190: 9c78 253f 7702 873d 2aa7 bcbe 057e ef3f
000001a0: 740d 07bf e268 c03e 7472 113e 0034 deb9
000001b0: 83d4 3b3f a75f c9bc 63b7 9dbc dfa6 79bd
000001c0: 7be3 b23e 8dd6 be3e cd06 173d dc60 073e
000001d0: 7c12 323c b104 47bf 388f c4bb 6d26 9f3e
000001e0: 0feb 20be 0c25 5bbe d638 933d 70f2 453b
000001f0: 164e 82bf ee44 de3f cd66 2d3d 0aac d33d
00000200: 9ed6 243f 05d1 3ebe b61f a73c b9c4 843f
00000210: 567d debc 4f5f 4d3f 22db 033d 22d0 64bf
00000220: c14b 333d ca85 273b 6976 7cbf a697 f33e
00000230: 12d0 93be baed 94be e12b a33e 6849 273f
00000240: 94e9 57bf 549f d93f dd56 f83e c4fc 583e
00000250: 4cb8 053f cf4b 9ebf a3ed 433e eca9 023e
00000260: 8f0d cf3d 26e9 723e a5ea c33f 8d62 14bf
00000270: 53d5 8f3f 7581 703f 0f37 98bc 0606 34be
00000280: f413 1abd c85a 37be eeab be3e 38c9 17bf
00000290: 2044 b8be 1431 0e3c f4f4 7a3d 5ca7 fabc
000002a0: 5aad 6b3c 2f33 9f3e 6777 193d 875f 6dbe
000002b0: 1c63 8f3c 9253 743d ad2b 28bd 09a5 8f3d
000002c0: 0600 043d bbd3 29bf 0956 6bbe 4a7e b13e
000002d0: 79b7 60be 9e93 38bc 5460 5bbe d4d1 6bbe
000002e0: 1871 afbb cf69 513c 897a 9540 f5ae 33bd
000002f0: 6978 663d 8ce5 dd3d 37b1 613f f760 75bf
00000300: 3b4a 363e 0871 103d e54a cd3f d35c f53d
00000310: fdca 21bd 84f0 793f fcea 6c3e 15db c1bd
00000320: 15cd 7dbf 8383 273d 78af c03b 1889 a5be
00000330: 2a8b 50be d371 b93b 2739 32bd 1baa 243d
00000340: 3963 94bc 3aff 94be e28e 51bf 2ab2 a43c
00000350: 267a 9fbf 6217 01bd 407c 4aba 02ec cc38
00000360: a29c b23c 7fbc a7bc b98f 4abf d0bb 6b3f
00000370: 1111 ef3d 9eda 6a3c 6d70 a63e e0cd 443b
00000380: e013 51bc 7af5 cf3c 16b9 d33c c23d 993e
00000390: 66b5 5a3c e44a 7b3e b001 fb3d 510d 8a3e
000003a0: 33c5 e6be 935e 97bc 7b1e 493d 467d 01bf
000003b0: 7cda 163c 1ddf c73e 97ac dd3c 581f 9abe
000003c0: feff 08bd 1603 fcbe b55c 94bd e004 693e
000003d0: e4bb 00c0 d673 c7bb 6abc 02be b8df 9cbb
000003e0: 98b2 1c3f cd4b 07bd 071d fb3e c348 663e
000003f0: 0887 eebe d909 20bd aa0e 873e 3c3d 76bb
-0.042206198 0.01680948 -0.32072625 0.023609791 -0.26451007 1.2566483 0.82734656 3.3135235
-0.704481 -0.59572625 -1.1151679 0.027414288 -0.036716733 -0.023108317 0.058448337 -1.3712896
-0.016006159 -0.44430095 -0.02852459 -1.0553664 0.39791483 -0.050292764 -2.0839002 -0.88891876
-1.1263349 0.017871886 -1.7971323 -1.184543 -1.3065577 -0.012115624 -0.03833185 -0.4268521
-0.034103565 -0.010352097 -0.8100688 0.0039413287 0.031185944 0.039954755 0.08683787 -0.4993783
0.005433941 -0.44453982 -0.015918767 0.004610544 0.08026676 0.5995001 0.55898297 0.9976752
0.029641468 -0.010883585 -0.26767224 0.33526468 -0.0023073442 0.56126547 -0.033663146 -0.027104
-0.9128256 -0.107390046 -0.39851314 -0.025418896 -1.2928189 4.0995436 -1.1700882 0.5127262
-0.03940265 -0.14576575 0.786036 0.104128495 0.40025222 -0.01864075 -1.3352916 0.35557765
-0.78717697 0.20771545 0.422026 -0.67843527 0.23694894 -0.98904324 -1.2018787 -0.047177173
-0.17329656 -0.43854767 0.94260997 -0.039387226 -0.009612091 0.4239171 0.23391885 1.7875186
0.040102918 0.7846243 -0.0084027685 0.06854737 0.096354194 0.019372117 -0.25456014 0.12886421
0.037579175 -0.86872095 1.7378844 -0.02559772 0.6463716 0.06592267 -0.36846286 1.8710333
-0.527549 0.3758002 0.14203817 -0.00042381883 0.7337114 -0.024581743 -0.019252485 -0.060950156
0.3493918 0.37273064 0.03687172 0.13220543 0.010868665 -0.77741534 -0.0059985183 0.31084004
-0.15714668 -0.21400851 0.07188575 0.0030204318 -1.018008 1.7364786 0.042334367 0.10335548
0.6438998 -0.18634422 0.020400863 1.0372535 -0.027159374 0.80223554 0.032191403 -0.89380085
0.043773416 0.0025561922 -0.9861818 0.47576636 -0.28869683 -0.2908762 0.31869414 0.65346384
-0.84340787 1.7001748 0.4850377 0.21190172 0.5223434 -1.2366885 0.1913362 0.12760133
0.10110008 0.23721752 1.5305983 -0.57962877 1.1236976 0.93947536 -0.018580941 -0.17580423
-0.037616685 -0.17905724 0.37240547 -0.5929141 -0.35989475 0.008678693 0.06126876 -0.030597381
0.014384592 0.31093737 0.037467387 -0.23180972 0.017503314 0.05965001 -0.041057277 0.070139
0.032226585 -0.663387 -0.22982039 0.34666663 -0.2194499 -0.011265663 -0.21423465 -0.23029262
-0.005354058 0.012781574 4.671208 -0.043868024 0.056267176 0.10834798 0.88161033 -0.9585108
0.17801754 0.035264045 1.6038481 0.119805954 -0.039500225 0.9763262 0.23136514 -0.09465615
-0.99141055 0.040896904 0.0058802925 -0.32331157 -0.20365587 0.005659321 -0.043511536 0.040201288
-0.01811372 -0.29100972 -0.81858647 0.020104486 -1.2459152 -0.03151644 -0.0007724203 9.771438e-05
0.021803204 -0.020475624 -0.79125553 0.92083454 0.11673177 0.014334349 0.3250765 0.0030029938
-0.012761086 0.025385607 0.025845092 0.2992993 0.013348913 0.24540287 0.12256181 0.26963285
-0.45072326 -0.018477714 0.049101334 -0.5058178 0.009207364 0.3903741 0.027059836 -0.30102038
-0.03344726 -0.49221104 -0.07244245 0.22755766 -2.011468 -0.0060868068 -0.12767187 -0.0047874115
0.6121001 -0.033031274 0.49045584 0.22488694 -0.46587396 -0.03907189 0.26378375 -0.003757312

fc2.bias f4 [9]
00000000: a3f2 653e a0f7 583e 2405 e83e facd 93bb
00000010: 4a5f cebd d721 9e3b fb91 113d 4bde 8cbc
00000020: 4b9d a43c
0.2245584 0.21188211 0.45316422 -0.0045106383 -0.10076769 0.0048258114 0.03553961 -0.017195841
0.020094534
