tejass hierarchical DRL controller/controller.pth (torch, 81311 bytes, 4 tensors)

fc1.weight f4 [512, 29]
0	0x3bbd2bd3	0.0057730465
1	0xbc4f12d0	-0.012638763
2	0x3e24ad4f	0.16081737
3	0x3dd44e56	0.10366504
4	0xbe1a0ff6	-0.15045151
5	0xbe55abb7	-0.20866285
6	0xbdc64523	-0.096811555
7	0x3d737cd1	0.059445206
8	0x3df75de2	0.120784536
9	0x3c86b254	0.016442455
10	0x3d33a58f	0.04385906
11	0x3ddb13c3	0.106971286
12	0x3e15239d	0.14564367
13	0x3d8bf110	0.068330884
14	0x3de84f36	0.11343233
15	0xbe0611ac	-0.13092679
16	0x3dcab0eb	0.09897026
17	0xbe238325	-0.15967996
18	0xbe0df29e	-0.13862082
19	0x3e0c4cd4	0.13701183
20	0xbd751add	-0.059840072
21	0x3d7ec7a6	0.06220212
22	0x3dea1f11	0.11431707
23	0x3d5b32a2	0.053515084
24	0x3dcf14f4	0.10111418
25	0xbcc8cb19	-0.024510907
26	0xbd02faa2	-0.031977303
27	0xbd870423	-0.06592586
28	0xbe42d128	-0.190251
29	0xbd24953c	-0.040181383
30	0xbe4490dd	-0.19195886
31	0x3e077321	0.13227512
32	0xbdd03675	-0.10166637
33	0x3e2ce615	0.16884644
34	0xbc935476	-0.01798461
35	0xbd470244	-0.048586145
36	0xbe255c61	-0.16148521
37	0xbd1be131	-0.038056556
38	0xbd013188	-0.031541377
39	0xbe1d8c44	-0.15385538
40	0xbcac62ea	-0.02104326
41	0x3e0aefe6	0.13568076
42	0x3c6d3071	0.014476881
43	0xbda861a3	-0.08221748
44	0x3dcd565c	0.10026237
45	0xbd80f7cd	-0.06297264
46	0x3df4bfc2	0.119506374
47	0x3bb506cb	0.0055244914
48	0xbe4f4010	-0.20239282
49	0xbda8f561	-0.08249927
50	0x3ddbd7c6	0.10734515
51	0xbe28192f	-0.16415857
52	0xbe8522b0	-0.26003027
53	0x3dbe993f	0.09306573
54	0x3d168b0a	0.03675369
55	0x3d72e7cd	0.059303094
56	0xbe0fe8d9	-0.14053668
57	0xbe660df8	-0.22466266
58	0xbd1a9e77	-0.03774878
59	0x3de04b4f	0.10951864
60	0x3e493e2a	0.1965262
61	0xbeb1a188	-0.3469355
62	0x3e747f4d	0.23876686
63	0xbe0d19d9	-0.13779391
64	0x3d2ade77	0.041716065
65	0x3e223d56	0.1584371
66	0x3fca4482	1.5802157
67	0xbd0bbd42	-0.034116037
68	0x3e0dcb7b	0.13847153
69	0xbc58e9e4	-0.013239358
70	0xba7c2206	-0.0009618107
71	0x3fccc5f7	1.5997914
72	0x3e29f973	0.16599064
73	0xbc04f0d5	-0.008114059
74	0x3e828564	0.25492394
75	0x3cd70c05	0.026250849
76	0x3fb23dcc	1.3925109
77	0x3f473669	0.778174
78	0xbe539dc1	-0.20665647
79	0xbdf536c7	-0.119733386
80	0xbecb4eca	-0.3970855
81	0x3fabdf4d	1.3427521
82	0x3d9c4f66	0.076323316
83	0x3e07b633	0.13253097
84	0x3f15e393	0.58550376
85	0x3fb41c68	1.4071169
86	0xbf064bbb	-0.52459306
87	0xbd86abac	-0.065757126
88	0xbe807aaa	-0.25093585
89	0x3da26d8e	0.07931052
90	0xbe4234c0	-0.18965435
91	0x3dc011a4	0.09378365
92	0x3b9c0e65	0.004762458
93	0xbc68ba67	-0.014204598
94	0x3d88846e	0.06665884
95	0xbd4660aa	-0.04843203
96	0xbda17c73	-0.07885065
97	0xbe43dc81	-0.19127084
98	0xbdc462ad	-0.095891334
99	0x3e054882	0.13015941
100	0x3df7a8ef	0.120927684
101	0x3e19cea1	0.15020229
102	0xbd5f6f5e	-0.054549567
103	0x3db2b381	0.08725644
104	0xbe34da59	-0.17661418
105	0xbe206045	-0.15661724
106	0x3e49485d	0.1965651
107	0x3e14291a	0.14468804
108	0xbd1a816d	-0.037721086
109	0xbd55673d	-0.05210041
110	0x3d612ca2	0.054974206
111	0x3e246b68	0.16056597
112	0x3c0ad327	0.008473194
113	0x3d0be49f	0.034153577
114	0x3cd3aa78	0.025838122
115	0xbe218dbb	-0.15776722
116	0xbe0f6cf8	-0.14006412
117	0xbdfb2460	-0.12262797
118	0xbfe8e0cc	-1.8193603
119	0x3ed3be6e	0.41356224
120	0xc0d5c24e	-6.679969
121	0x3e30bdfd	0.17259975
122	0xbe12cdbc	-0.14336294
123	0x3e8c1e73	0.2736698
124	0xbf86a7b1	-1.0519925
125	0x40d6b568	6.7096443
126	0x3e2b0998	0.16702878
127	0x3e835bf3	0.2565609
128	0x3fb113a7	1.3834122
129	0xbf95408d	-1.1660324
130	0x40d98396	6.7973127
131	0x3ddfe844	0.10932973
132	0xbc02d5f9	-0.007985585
133	0xbe0871a7	-0.13324605
134	0xbf20150a	-0.62532103
135	0x400d59a1	2.2085955
136	0xbda46841	-0.08027697
137	0x3e46805c	0.19384903
138	0xbda93984	-0.08262923
139	0xbf54ad6c	-0.8307712
140	0x3f949bd2	1.1610053
141	0xbe433566	-0.19063339
142	0xbd9cc2e9	-0.07654364
143	0x3f666337	0.8999514
144	0xbff2ee92	-1.8979056
145	0x3cc37bec	0.023862801
146	0xbcd68d9c	-0.026190571
147	0x3b12e424	0.0022413814
148	0x3dc30e83	0.09524252
149	0x3bdd93e3	0.0067620142
150	0xbe35a40b	-0.17738359
151	0xbcdd0407	-0.02697946
152	0xbb54d8f2	-0.0032477942
153	0xbd84c650	-0.064831376
154	0x3dd4d941	0.103930004
155	0xbda03cfd	-0.078241326
156	0xbd8baa9a	-0.06819649
157	0x3e0100e9	0.12598003
158	0x3d2161ca	0.0393999
159	0x3b3d65a1	0.0028899687
160	0x3e083f9b	0.13305514
161	0xbe35cbd3	-0.17753534
162	0x3e03989d	0.12851186
163	0x3d09d599	0.03365097
164	0x3e08fa2b	0.13376682
165	0xbc69e615	-0.014276047
166	0x3da22a8b	0.07918271
167	0x3e05053e	0.12990281
168	0xbbbf2ff4	-0.005834574
169	0x3df8aafc	0.12141988
170	0xbdbdc991	-0.09266961
171	0xbca0bd94	-0.019621648
172	0xbdc5139a	-0.09622879
173	0x3de9f2e6	0.11423282
174	0xbd1e4e68	-0.038648993
175	0x3e109dc7	0.14122687
176	0xc0295671	-2.645901
177	0x3e04901e	0.12945601
178	0xc0d67f6e	-6.7030554
179	0xbd3e3d5f	-0.046445247
180	0xbe5e37c7	-0.21700965
181	0x3ebb9fd2	0.3664537
182	0x3e8cff2f	0.2753844
183	0x40d2f175	6.5919747
184	0x3a40b795	0.00073515746
185	0x3bd23f6b	0.0064162514
186	0x3fe5efb3	1.7963775
187	0x3dc1fed0	0.0947243
188	0x40cd38c7	6.413181
189	0xbd2e6a86	-0.042582057
190	0x3dd5f08e	0.10446273
191	0xbc7b6d93	-0.015345949
192	0xbe0e1c0b	-0.13877885
193	0x401bab04	2.432313
194	0xbe0f5289	-0.13996328
195	0x3ce44181	0.027863266
196	0x3de0fe59	0.10986013
197	0x3def90fc	0.116975754
198	0x3ffb26f0	1.9621258
199	0x3cee1aee	0.029065575
200	0xbea0436f	-0.31301448
201	0x3e06bad1	0.13157202
202	0xc00ba645	-2.1820233
203	0xbd979d84	-0.074030906
204	0xbcf49788	-0.029857412
205	0x3ae52680	0.0017482787
206	0xbe299e03	-0.16564183
207	0xbe0858ed	-0.13315172
208	0xbd630888	-0.055428058
209	0xbd48855c	-0.048955306
210	0xbe2d1283	-0.16901593
211	0x3e2c8963	0.16849284
212	0xbbecbf00	-0.0072249174
213	0x3d94e512	0.07270254
214	0xbdac7ac1	-0.08421851
215	0xbc7a6c80	-0.0152846575
216	0x3d8fb5ba	0.070170835
217	0xbd91d712	-0.071210995
218	0xbe09d53f	-0.13460253
219	0xbdf29c17	-0.11846178
220	0x3e3a5e89	0.18200125
221	0xbe3c6350	-0.1839726
222	0xbe245d89	-0.16051306
223	0xbe0104c5	-0.12599476
224	0x3acf3880	0.0015809685
225	0x3db4d1de	0.088290915
226	0x3e272043	0.163209
227	0x3cb5c988	0.022190824
228	0xbe28056c	-0.16408318
229	0x3d5241b8	0.051332206
230	0xbdbcf649	-0.09226663
231	0x3d85789a	0.065171435
232	0xbdc9e553	-0.09858193
233	0xbe74882b	-0.23880069
234	0x3ec26f32	0.3797546
235	0xbe66998e	-0.22519514
236	0xbedb422c	-0.42823923
237	0xbc84069b	-0.016116431
238	0xc01602f2	-2.3439298
239	0xbdc103d3	-0.094245575
240	0x3ea39a7b	0.31953797
241	0x3e935363	0.28774557
242	0xbe2fec55	-0.17179997
243	0xbf2c1f9f	-0.6723575
244	0xbeed2cc2	-0.4632321
245	0x3e704f78	0.23467815
246	0x3ee705ea	0.451217
247	0xbea90143	-0.33008775
248	0xbeb42b85	-0.35189453
249	0x3f37c23c	0.71780753
250	0xbadd5e0e	-0.0016888992
251	0x3f90287f	1.1262358
252	0xbcd4b4c4	-0.025965102
253	0x3ec95233	0.39320526
254	0x3f07c504	0.53034997
255	0x3f2c7014	0.6735852

fc1.bias f4 [512]
0	0xbe51e73c	-0.20498365
1	0xbe255770	-0.16146636
2	0xbd2092d9	-0.039202545
3	0x3d61d635	0.055135924
4	0x3dafb1b5	0.08578817
5	0xbcee07db	-0.02905648
6	0x3e401c90	0.18760896
7	0xbd29c9b4	-0.041452125
8	0xbe2251e4	-0.15851551
9	0x3adbc782	0.0016767832
10	0xbe634119	-0.22192802
11	0xbe3c8868	-0.1841141
12	0xbdf5c22d	-0.11999927
13	0xbe131bf3	-0.1436613
14	0x39d89587	0.00041310137
15	0xbd3e4b0c	-0.04645829
16	0xbdfa22cc	-0.12213668
17	0xbdb6f60f	-0.08933651
18	0x3ba06d10	0.0048958138
19	0xbe363dd8	-0.17797029
20	0xbd434318	-0.047671407
21	0xbd2568bd	-0.04038309
22	0xbdb88007	-0.09008794
23	0xbc62fe52	-0.01385458
24	0x3dbb7255	0.091526665
25	0x3dc88406	0.097908065
26	0x3da5510d	0.080721
27	0x3dc63acd	0.09679184
28	0xbe2e642d	-0.17030402
29	0x3e52cd5d	0.20586152
30	0x3d9569c9	0.072955675
31	0xbe4b3d5d	-0.19847627
32	0x3d36115d	0.044450153
33	0x3d820d11	0.063501485
34	0x3d1161dd	0.03549372
35	0x3cf2476f	0.029575078
36	0x3d6bd384	0.057574764
37	0x3e034b99	0.12821807
38	0xbddb477e	-0.107069954
39	0xbe023290	-0.127146
40	0xbe53b037	-0.2067269
41	0x3e48e528	0.19618666
42	0xbd971e54	-0.073788315
43	0xbd10bc73	-0.03533597
44	0xbe395422	-0.180985
45	0x3e5ddc56	0.21666083
46	0x3e04f8c9	0.12985529
47	0xbd414fe9	-0.04719535
48	0xbc1a96db	-0.009435381
49	0x3e40edfe	0.18840787
50	0x3d1b111c	0.037858114
51	0x3e42357d	0.18965717
52	0xbe7bad9f	-0.2457795
53	0xbe0526c1	-0.13003065
54	0xbd2e94ff	-0.042622562
55	0xbe542300	-0.20716476
56	0x3cebd3a4	0.028787442
57	0xbd07c63c	-0.033148035
58	0xbd0c872b	-0.034308594
59	0xbde6915e	-0.11258195
60	0x3c7eb190	0.015545264
61	0xbcbc8e53	-0.023017084
62	0xbce1c91f	-0.027561722
63	0xbde1f358	-0.11032742
64	0xbe982500	-0.2971573
65	0x3dcad512	0.09903921
66	0x3a29abab	0.0006472419
67	0xbda61a35	-0.08110467
68	0x3de58b14	0.11208168
69	0x3d99b465	0.07505111
70	0x3df4c932	0.119524375
71	0xbe9ae6a9	-0.30254105
72	0xbdcd214b	-0.10016116
73	0xbdf63bad	-0.12023101
74	0xbd8521dc	-0.06500599
75	0xbe015c60	-0.12632895
76	0x3dcab5c2	0.09897949
77	0xbdcfede5	-0.10152797
78	0xbe8fbf76	-0.2807576
79	0x3e227560	0.15865088
80	0xbd8c4cc2	-0.06850578
81	0xbe292e27	-0.16521512
82	0xbe362d59	-0.17790736
83	0xbe2f5ff6	-0.1712645
84	0xbcc596ed	-0.024119819
85	0x3d823bf9	0.06359095
86	0x3e3d5c2b	0.1849219
87	0xbdc7860a	-0.09742363
88	0x3dda033b	0.106451474
89	0x3dcff773	0.10154619
90	0xbea7b615	-0.32756105
91	0xbe36aa7a	-0.17838469
92	0xbe533ee5	-0.20629461
93	0xbe19199a	-0.14951172
94	0xbd11707a	-0.035507657
95	0x3d02a07e	0.03189134
96	0xbdd03fe8	-0.10168439
97	0xbdec7da2	-0.115474
98	0x3cd03705	0.02541686
99	0x3d698866	0.057014845
100	0xbda2ead8	-0.07954949
101	0x3e0ea537	0.13930212
102	0xbdf73aa8	-0.12071735
103	0xbdaf4768	-0.085585415
104	0xbe0c96cb	-0.13729398
105	0xbc221414	-0.009892482
106	0xbdcba8aa	-0.099442795
107	0x3defa2a3	0.11700942
108	0x3e3be584	0.18349272
109	0x3df43210	0.11923611
110	0xbe17e84d	-0.1483471
111	0xbc7cd2d1	-0.015431122
112	0x3d6d9f36	0.058013164
113	0xbdf69f2d	-0.12042079
114	0xbda59948	-0.08085877
115	0xbdb792cd	-0.08963547
116	0xbc744934	-0.014910031
117	0x3dbd4550	0.09241736
118	0x3e0f5152	0.13995865
119	0x3d102d12	0.035199232
120	0xbd886a34	-0.06660882
121	0x3ab5f603	0.0013882521
122	0x3e32809a	0.1743187
123	0xbe16c9ce	-0.1472542
124	0xbe2e80f6	-0.17041382
125	0xbe3baaec	-0.1832692
126	0xbe3c92e1	-0.18415405
127	0xbd8c2fe0	-0.06845069
128	0xbe146865	-0.14492948
129	0xbdf87810	-0.12132275
130	0xbdaaac01	-0.083335884
131	0x3ca62070	0.02027914
132	0x3db88bc0	0.0901103
133	0xbe7e5565	-0.24837263
134	0xbe3bcef5	-0.18340667
135	0x3e892417	0.26785347
136	0xbe3e35bd	-0.18575187
137	0x3d397110	0.04527384
138	0xbdfeae6c	-0.12435612
139	0x3e3518da	0.17685261
140	0xbe46c378	-0.19410503
141	0x3e55b6c0	0.20870495
142	0xbd82200a	-0.06353767
143	0x3dabd6bd	0.083905675
144	0xbe16250c	-0.1466257
145	0xbd5834f4	-0.052784875
146	0xbd8bb30e	-0.06821261
147	0xbcc1b7e5	-0.023647258
148	0xbce63d79	-0.028105484
149	0xbd0a4d07	-0.033764865
150	0x3d024388	0.031802684
151	0x3e0b110d	0.13580723
152	0xbbe80623	-0.0070808097
153	0x3d9686b8	0.07349914
154	0x3dae0a5b	0.08498069
155	0x3d4dea02	0.050271995
156	0x3e4c33b4	0.19941598
157	0xbe1e7a4c	-0.1547634
158	0xbb111fad	-0.0022144124
159	0x3dbbc36e	0.09168135
160	0xbd4414d4	-0.047871426
161	0xbe2a9e85	-0.16662033
162	0xbdde637f	-0.10858821
163	0xbe1b29c9	-0.15152659
164	0xbd960cd9	-0.07326669
165	0x3dd8934e	0.10574971
166	0xbe2c367d	-0.1681766
167	0xbd94fa19	-0.07274265
168	0xbe169e5c	-0.14708847
169	0x3d094192	0.0335098
170	0x3e2855a9	0.16438927
171	0x3cd3356c	0.02578231
172	0xbe0cef7e	-0.13763234
173	0xbe3f9ad3	-0.18711405
174	0x3e07801c	0.13232464
175	0x3cdc4d1c	0.026892237
176	0xbe41bf9c	-0.1892075
177	0xbc8802bc	-0.016602866
178	0x3d5ea04b	0.054352086
179	0xbda26b5e	-0.07930635
180	0x3d372320	0.044711232
181	0x3bee7fe6	0.0072784303
182	0x3db5eca7	0.088830285
183	0xbd2f0850	-0.042732537
184	0x3d192ae3	0.037394416
185	0x3e207ce6	0.15672645
186	0x3d5b2391	0.053500716
187	0x3e026d21	0.12736942
188	0x3d752c18	0.059856504
189	0xbe12b259	-0.14325847
190	0x3c99352c	0.018702112
191	0xbdab3460	-0.08359599
192	0x3e3c6989	0.18399633
193	0xbdad74f6	-0.08469574
194	0xbcc59a43	-0.02412141
195	0x3d68f7b7	0.056876864
196	0xbcd5dc67	-0.026106073
197	0x3e13ac72	0.14421251
198	0xbd269d98	-0.040677637
199	0xbd8ef838	-0.06980938
200	0xbe21cdf4	-0.15801221
201	0xbe16aca6	-0.14714298
202	0xbe1b8fe6	-0.15191612
203	0xbe3f0605	-0.1865464
204	0x3e17f912	0.14841107
205	0x3e10d397	0.14143215
206	0xbe284360	-0.16431952
207	0xbe4b61bb	-0.198615
208	0x3c93fed2	0.018065844
209	0x3b924cdd	0.004464729
210	0xbe47d956	-0.19516501
211	0xbd5aec09	-0.053447757
212	0xbca4d1d1	-0.02011958
213	0xbe156a53	-0.1459134
214	0xbd04d9d3	-0.032434296
215	0xbc00121f	-0.00781682
216	0x3c8fafc0	0.017539859
217	0x3e33dda8	0.17565024
218	0xbe421437	-0.18953024
219	0x3e1cdd1d	0.15318723
220	0xbd5524a9	-0.052036915
221	0xbed35857	-0.41278335
222	0x3dc834a9	0.09775669
223	0xbe39f51e	-0.18159911
224	0xbe8877c6	-0.2665388
225	0x3daeb42c	0.08530459
226	0xbda42beb	-0.08016189
227	0xbc5dcee0	-0.013538092
228	0x3dad1c40	0.08452654
229	0xbd20261a	-0.039098836
230	0xbe7aa893	-0.24478368
231	0xbe4481f6	-0.19190201
232	0x3e20c431	0.15699841
233	0x3c3cbc3b	0.011519487
234	0x3dc0d12e	0.09414898
235	0x3e5e9d12	0.21739605
236	0xbe420eb3	-0.1895092
237	0x3cf4bcda	0.029875208
238	0x3e6d3dd1	0.23168112
239	0xbe0417e8	-0.12899745
240	0xbbcce77a	-0.00625318
241	0x3d6d7ea2	0.057982095
242	0x3c379163	0.0112040965
243	0x3e07db0c	0.13267154
244	0x3ccb48b7	0.024814947
245	0x3db8144e	0.08988248
246	0xbc00701c	-0.007839229
247	0xbddb7c8b	-0.10717114
248	0x3debace2	0.11507584
249	0xbe31513b	-0.17316143
250	0xbe17f3f5	-0.14839156
251	0x3dd50150	0.10400641
252	0xbe03836c	-0.12843102
253	0xbe6bd156	-0.23029074
254	0xbd6937a3	-0.056937825
255	0xbda2caa5	-0.079488076

fc2.weight f4 [9, 512]
0	0x3a23ff32	0.00062559836
1	0xbcd87a77	-0.026425583
2	0x3e992652	0.2991205
3	0xbc938578	-0.018007979
4	0xbf2cd157	-0.6750693
5	0xbb1d6bc0	-0.0024020523
6	0x3d9853ae	0.07437836
7	0x3cc550d2	0.02408639
8	0x3e80207f	0.25024793
9	0x3cc4033f	0.02392733
10	0x3d2f754e	0.04283648
11	0x3c7d8160	0.01547274
12	0x3ce1acea	0.027548272
13	0x3f0390ca	0.51392806
14	0x3d3939c3	0.0452211
15	0x3f596940	0.84926224
16	0xbf301354	-0.6877949
17	0xbe770367	-0.24122392
18	0xbeea266c	-0.4573244
19	0xbce3016a	-0.027710635
20	0xbd1deca8	-0.03855577
21	0x3c3c9ccb	0.011511992
22	0xbcffc5be	-0.03122222
23	0xbed1ce03	-0.40977487
24	0xbd73c68b	-0.059515517
25	0x3c681fe5	0.0141677605
26	0xbf0d89e2	-0.5528852
27	0xbf44bcf1	-0.768508
28	0x3a9fdfaf	0.00121974
29	0xbeaeb2ea	-0.34120876
30	0x3f51aff0	0.81909084
31	0xbd026c99	-0.031841848
32	0xbed852b3	-0.42250594
33	0xbe41dba2	-0.1893144
34	0xbc8c07ee	-0.017093625
35	0xbea94525	-0.33060566
36	0x3e874d0f	0.2642598
37	0x3ed3f66e	0.41398948
38	0xbdc970f0	-0.09835994
39	0x3dd1f46c	0.10251698
40	0x3d9e7238	0.07736629
41	0xbf5d73c2	-0.8650476
42	0x3b9d11ae	0.0047933673
43	0xbcdc38b5	-0.026882509
44	0x3d14948f	0.03627449
45	0x3e35a113	0.17737226
46	0xbea40542	-0.3203526
47	0xbd0bb1c1	-0.034105066
48	0xbe8dc533	-0.27689514
49	0x3e24d188	0.16095555
50	0xbdae731a	-0.08518048
51	0x3e0228c8	0.1271087
52	0xbf8fb67e	-1.1227567
53	0x3e218ecc	0.15777129
54	0xbfc3ccd7	-1.5296887
55	0x3c7c8d3e	0.015414534
56	0xbd0ba9a5	-0.034097333
57	0xbd367f8e	-0.04455524
58	0x3b1b0bc2	0.0023658131
59	0xbef4065e	-0.47661108
60	0x3d02be03	0.03191949
61	0x3f77ae28	0.96750116
62	0xbe534cac	-0.20634717
63	0xbd4ceef1	-0.05003256
64	0xbec50d5f	-0.38486764
65	0x3f46872a	0.77549994
66	0xbdac3d41	-0.08410121
67	0xbb8e6a35	-0.004346157
68	0x3fdf51eb	1.7446874
69	0x3c36b3a0	0.011151224
70	0x3cf982ba	0.030457843
71	0x3d92d631	0.0716976
72	0x3ea93f6e	0.33056206
73	0xbd0cce6e	-0.034376554
74	0xbea9f70c	-0.33196294
75	0x3cc5a996	0.024128716
76	0x3e287f2f	0.16454767
77	0x3d69e3b5	0.057101924
78	0x3e011932	0.12607267
79	0xbe7beaca	-0.24601284
80	0x3c2ae483	0.010430458
81	0xbe49ce79	-0.1970767
82	0xbd25805d	-0.04040562
83	0xbc978260	-0.018494785
84	0x3bce8a79	0.0063031283
85	0xba451200	-0.0007517636
86	0x3dddbbbc	0.10826823
87	0xbe7d692f	-0.24747156
88	0x3ca13435	0.019678215
89	0xbf83b029	-1.0288135
90	0x3e6f8203	0.2338944
91	0xbc26978c	-0.0101679675
92	0x3ec47248	0.3836844
93	0xbc84f79f	-0.016231356
94	0x3d65b27c	0.05607842
95	0x3df85fa6	0.121276185
96	0x3e93ec14	0.2889105
97	0xbe96a7e3	-0.29424962
98	0x3f57c4f3	0.84284896
99	0xbe153fec	-0.14575166
100	0x3f03a58d	0.51424485
101	0x3cdb133a	0.026742566
102	0xbcff33c8	-0.03115262
103	0x3f46496a	0.7745577
104	0x3d2e04dd	0.042485107
105	0x3d988157	0.074465446
106	0x3fbebd60	1.4901543
107	0x3d27c45d	0.04095875
108	0xbeda5285	-0.42641082
109	0x3f212914	0.62953305
110	0x3f50eeba	0.8161427
111	0xbd132118	-0.035920233
112	0xbea308bf	-0.3184261
113	0x3e0199b9	0.12656297
114	0xbd04d8c2	-0.03243328
115	0xbcd8f5bc	-0.026484363
116	0xbf3752cf	-0.7161073
117	0x3e9be1ca	0.304457
118	0x3d0fed93	0.035138678
119	0x3d142bab	0.036174458
120	0xbcd9d61e	-0.026591357
121	0x3d15f26a	0.036608137
122	0x3e90d9d2	0.28291184
123	0xbf35dddb	-0.7104165
124	0x3c2581b4	0.010101724
125	0x3be79cf0	0.007068269
126	0xbf267682	-0.6502458
127	0xbccc2763	-0.024921125
128	0xbd1c70f0	-0.038193643
129	0xbd8e211c	-0.06939909
130	0x3e8ea8a5	0.2786304
131	0x3be807cc	0.0070810076
132	0xbe59821b	-0.21241038
133	0xbdb9bc9e	-0.09069179
134	0xbe11a8b9	-0.14224519
135	0x3f05f92d	0.5233334
136	0x3cb12fd3	0.02162925
137	0xbd01c34e	-0.031680398
138	0x3f240c27	0.64081043
139	0x3e6c9162	0.23102334
140	0x3c9f047e	0.019411322
141	0x3f2e7142	0.6814157
142	0xbda2ef49	-0.07955796
143	0xbf70606c	-0.9389713
144	0xbd2284ee	-0.039677553
145	0xbf154df1	-0.58322054
146	0xbd0155b4	-0.031575873
147	0xbc16fae4	-0.00921509
148	0xbcd9cbf7	-0.026586516
149	0xbd0d38af	-0.034477886
150	0xbde0cef4	-0.10976973
151	0x3e9699de	0.29414266
152	0x3e23fc00	0.16014099
153	0xbe1e9f38	-0.15490425
154	0xbc67ca5e	-0.014147369
155	0xbe04d708	-0.12972653
156	0xbf6334f0	-0.8875265
157	0x3c07074c	0.008241486
158	0xbf1d67d4	-0.61486554
159	0x3af7b9b2	0.0018899946
160	0xbf73c767	-0.9522614
161	0x3b75866e	0.003746416
162	0x3c525558	0.01283773
163	0xbdb7d6d5	-0.08976523
164	0xbe3ae2d3	-0.18250589
165	0x3edc7a71	0.43062165
166	0xbd114056	-0.035461746
167	0x3fa8af1b	1.3178438
168	0xbe920e35	-0.28526464
169	0xbf4e3075	-0.8054269
170	0x3ec2ead0	0.38069773
171	0x3f03362e	0.51254547
172	0x3dfb2d3b	0.122644864
173	0xbbec44fb	-0.0072103716
174	0x3de694fb	0.112588845
175	0x3d0731f7	0.033006635
176	0xbf68725d	-0.90799505
177	0x3e5933af	0.21211122
178	0x3cd3a246	0.025834214
179	0xbc885afd	-0.01664495
180	0xbcb047c6	-0.0215186
181	0xbe7a2499	-0.24428023
182	0xbf9b693b	-1.2141489
183	0xbd0173b2	-0.031604476
184	0xbf228a28	-0.6349206
185	0x3f2c2e9e	0.6725863
186	0x3e4eff93	0.20214681
187	0x3e9972f8	0.29970527
188	0xbcbede34	-0.023299314
189	0x3f2ee58a	0.68319
190	0x3f1e2bd7	0.61785644
191	0x3e8f8bdf	0.280364
192	0xbed45b39	-0.41475847
193	0x3d14706a	0.03624002
194	0x3f68e984	0.90981317
195	0x3e9de33d	0.30837432
196	0x3e12aae7	0.14323007
197	0xbe375cc6	-0.17906484
198	0x3d019ebd	0.031645525
199	0xbeddd3ae	-0.4332556
200	0xbcbbaa8a	-0.022908468
201	0xbcf2a7de	-0.029621061
202	0xbcbe4a66	-0.023228835
203	0xbedc14b6	-0.4298455
204	0xbf4d6849	-0.8023725
205	0x3cdadd22	0.026716772
206	0x3ef26516	0.47342747
207	0xbda416af	-0.08012139
208	0x3f310ad3	0.6915714
209	0x3e50c677	0.20388208
210	0xbeaf97c4	-0.34295475
211	0xbd34353a	-0.043996073
212	0xbc21d9a6	-0.009878552
213	0xbd2ce9ac	-0.042215034
214	0x3ef9df84	0.4880334
215	0x3e72e7cd	0.23721237
216	0x3f109c29	0.5648828
217	0xbdb72e1c	-0.089443415
218	0x3bca9a60	0.0061829537
219	0xbfc4b8d7	-1.5368909
220	0x3a8cd416	0.0010744359
221	0x3e1131a5	0.14179094
222	0x3daa92d3	0.08328786
223	0xbce053f1	-0.027383776
224	0x3f571a5d	0.840246
225	0x3ee4cbc4	0.4468671
226	0xbf9c1944	-1.219521
227	0x3d254cbf	0.040356394
228	0x3f3b3958	0.73134375
229	0x3f2825be	0.6568259
230	0x3e5210a5	0.20514162
231	0xbf076103	-0.52882403
232	0xbf7c08bc	-0.9845083
233	0x3c939d80	0.018019438
234	0xbcb49978	-0.022045836
235	0x3efbc88f	0.49176452
236	0x3ddcebb2	0.10787143
237	0x3dc4da80	0.09611988
238	0x3e8c94a1	0.27457145
239	0x3d1ec6f5	0.03876396
240	0xbf058dbe	-0.52169406
241	0x3e9cc68e	0.30620235
242	0xbc73210a	-0.01483942
243	0x3e870a63	0.26375112
244	0x3c9f37e0	0.019435823
245	0x3e944f46	0.2896673
246	0xbf105fe6	-0.5639633
247	0xbd31487a	-0.04328201
248	0x3e1c9917	0.15292774
249	0xbb5d2b70	-0.0033747815
250	0x3d19cdbb	0.037549715
251	0x3ec7e286	0.3904001
252	0xbcec0a2a	-0.02881344
253	0xbcfdd599	-0.03098564
254	0xbf7f8411	-0.9981089
255	0xbe971a07	-0.29512045

fc2.bias f4 [9]
0	0x3e81cd56	0.2535197
1	0x3ea813b4	0.32827532
2	0x3e3f60c2	0.18689254
3	0x3e0a961e	0.13533828
4	0x3edd29f6	0.43196076
5	0x3e56de2a	0.20983186
6	0x3e1f0221	0.15528156
7	0x3e7b88fb	0.24563973
8	0x3dd9537b	0.10611626
