tejass hierarchical DRL controller/meta_controller.pth (torch, 73119 bytes, 4 tensors)

fc1.weight f4 [512, 25]
000000 06 53 6a be 93 9a d4 bc 05 f6 5b 3f d2 b1 3d c0
       -0.22883233 -0.025952613 0.8592227 -2.9639783
000010 92 1a d1 3f 58 8f 45 be 5e 10 23 3f fb fe ea be
       1.6336234 -0.19292963 0.6369685 -0.4589766
000020 e8 ca 87 3f 3e 75 ea bf 76 c8 25 be e2 10 a8 3e
       1.0608797 -1.831703 -0.16189751 0.3282538
000030 16 9c e2 be 02 2a 8d 3f 90 5b c5 bf b2 f1 f5 bd
       -0.4425971 1.1028445 -1.5418568 -0.1200899
000040 71 a0 f7 be 0e bd b0 bc 48 22 55 3f 7c a5 65 bf
       -0.48364595 -0.021574523 0.83255434 -0.89705634
000050 6d b9 c2 bc 1d e1 cb bd a8 55 ff 3d c9 63 e5 3e
       -0.023770059 -0.09955046 0.124675095 0.44802693
000060 69 da a3 bf a6 47 7c 3d ae 5a 6b bd a2 1d e5 3e
       -1.2801028 0.061591767 -0.057459526 0.4474917
000070 8a 74 13 3e d5 c6 1e 3f f4 fe 0e be df a2 06 3e
       0.14399925 0.62022144 -0.13964444 0.13148068
000080 d6 61 bf bd 23 f9 eb be 5b a6 5a 3f 43 3d a7 3d
       -0.093448326 -0.46088514 0.8541009 0.081659816
000090 98 b9 b6 3e 79 67 06 3d 17 19 4b be 2a f3 34 3f
       0.35688472 0.032813523 -0.1983379 0.7068354
0000a0 03 1f 2c 3d 91 4b 7f be 45 69 71 3e 11 de f9 3e
       0.042021763 -0.2493117 0.23575313 0.48802236
0000b0 6d aa 54 3d c3 05 45 bd bd af 93 3e d9 fc b4 bf
       0.051920343 -0.048101198 0.28845015 -1.4139663
0000c0 3b ac c4 bd be 2c a9 bf e2 1b 3a be 75 2a 41 be
       -0.09603163 -1.3216779 -0.18174699 -0.18863852
0000d0 83 be b6 3f ed 14 17 bf 71 dd 1b 3f ef 9b 0a be
       1.427689 -0.59016305 0.6088477 -0.13536046
0000e0 56 fd 64 3f a1 e7 78 be 2c 78 1c 3f d8 40 1e bf
       0.8944906 -0.2430711 0.6112087 -0.61817694
0000f0 e2 07 87 be fc ea 41 3f ce 2b e0 bf 7c 20 1a 3f
       -0.26373202 0.7574918 -1.7513368 0.6020582
000100 45 3f 2a bf a9 cc 4e 3e c3 29 80 3e a3 ca b0 3c
       -0.6650279 0.20195259 0.25031862 0.021581
000110 1b f7 99 3e ba 77 20 c0 b6 ee 21 bd ee 87 b0 3e
       0.3007134 -2.5073075 -0.039534293 0.34478706
000120 17 ee 5e bf b2 19 82 3e 56 d2 4d 3e 42 27 68 bd
       -0.87082046 0.2541023 0.20099768 -0.056678064
000130 68 ef c2 bd 42 e0 08 3f 56 31 95 3e c8 c4 00 3e
       -0.09518319 0.5346719 0.29139203 0.12575066
000140 fb 98 3a 3e e7 49 9a bf 95 46 24 3d 87 b5 85 bf
       0.1822242 -1.2053803 0.040106375 -1.0446023
000150 63 98 a6 3e 8b b7 aa 3d 8b e7 6a bf 16 43 25 be
       0.32538137 0.08335789 -0.91759557 -0.16138873
000160 3b d1 81 bf ff 17 c4 3e f6 b9 4d 3e 9d f3 c9 be
       -1.0141977 0.38299558 0.2009047 -0.39443675
000170 31 5b 6a bf 11 06 6d bf 53 cf 02 c0 ba 15 64 3e
       -0.915454 -0.9258738 -2.043904 0.22273913
000180 de e3 e1 be b8 5c 88 3e 62 7f c9 bf 88 b6 53 bf
       -0.4411916 0.2663324 -1.5741999 -0.82700396
000190 11 b0 9d bd 3b 3d 4e bc e9 fe ff 3e ea f9 a8 be
       -0.076995976 -0.012587841 0.4999917 -0.3300317
0001a0 70 22 58 3f ef 58 8d 3d 72 46 79 be e4 8d 3c bf
       0.8442755 0.06901728 -0.24343279 -0.7365401
0001b0 f8 1d 67 3f 3b 2a 72 bf 52 a6 c9 3d c5 50 24 bd
       0.90280104 -0.9459569 0.09846176 -0.04011609
0001c0 5f 8b 1c bf 67 73 4c 3f d1 70 20 bf ae 08 35 3e
       -0.61150163 0.7986359 -0.62672144 0.17679092
0001d0 aa dc dc be 72 29 15 be 4b 13 67 3f 2d dc 9a be
       -0.43137103 -0.14566591 0.90263814 -0.30246106
0001e0 20 0a 48 3e ec 12 03 bf 27 5a 15 bf 30 6c 0e 3f
       0.19535112 -0.5120075 -0.58340687 0.5563383
0001f0 e0 4b 5b c0 26 0b 1f 3e 60 55 39 3c 6a 9f cc bd
       -3.426506 0.15531597 0.011311859 -0.09991343
000200 46 7c 3c 3f 82 8a 19 bd 2a 36 41 3e fd 7a 2a bf
       0.73627126 -0.037485607 0.18868318 -0.66593915
000210 e6 b4 19 be ac db 35 c0 b2 0c 3a bf a8 e0 47 3d
       -0.15010414 -2.8415327 -0.7267562 0.048798233
000220 36 a0 38 bf d1 50 49 bc 5e c5 2b c0 ee 92 8c bf
       -0.7211946 -0.012287335 -2.6839213 -1.0982339
000230 51 3c cf 3d ff 2d d1 be 6b ef 35 3d 59 9f cf bf
       0.10118926 -0.40855405 0.04441778 -1.6220504
000240 78 29 4b be bb 91 60 be cf e2 fd be 31 5c 1a 3d
       -0.19840038 -0.21930592 -0.49587104 0.037685577
000250 cc 98 e9 bf e2 ad a7 3e e5 0b d8 3d 92 d1 cb bd
       -1.8249755 0.3274985 0.10549144 -0.09952082
000260 3b a0 3c bc 4c 14 15 3e 1b 1d 33 bd d2 c6 26 be
       -0.011512811 0.14558524 -0.04372893 -0.16286781
000270 08 6f ac bc bf 3e a5 3d b5 53 ef bd 18 d2 4f 3e
       -0.021049038 0.080686085 -0.11685888 0.20294988
000280 ac 36 aa 3d 4f 2b 1b be 77 4e 1e be 19 51 14 3e
       0.08311209 -0.1515324 -0.1545962 0.14484061
000290 bd 0a 2b be cd d1 3c bc 4d dc 12 bd eb 26 83 ba
       -0.16703315 -0.01152463 -0.035854626 -0.0010006105
0002a0 f5 7b 9a bd 4b 6d 13 be 02 c7 43 be 70 58 ae bc
       -0.07543174 -0.1439716 -0.19118884 -0.021282405
0002b0 57 b7 48 be 3a 9a 95 3d de da 27 be 3f b6 b9 be
       -0.19601189 0.07304807 -0.16392085 -0.36271855
0002c0 83 58 0a be dc 25 84 3f de 2b a1 3e 6a 1f a6 3f
       -0.13510327 1.0324054 0.3147878 1.2978337
0002d0 00 ea 48 bd 74 67 35 3f 88 e8 5d be e6 57 a0 bf
       -0.049051285 0.7086098 -0.21670735 -1.2526824
0002e0 df cd 98 bf 19 9f 9d be 6e 9f 83 3e d9 27 cd 3e
       -1.1937827 -0.30785444 0.25707573 0.40069464
0002f0 5d 96 c5 bf 1c bf 6f bf d6 85 75 be b6 3c c5 3e
       -1.5436512 -0.93650985 -0.23976836 0.3852288
000300 b8 84 05 3f 23 6e 9a bf 3d 70 fd bf 23 46 09 be
       0.5215564 -1.2064861 -1.9799877 -0.13405661
000310 fa 60 24 3f a3 11 22 bf ac 9f 2e bf e2 5e 48 bf
       0.64210474 -0.6330816 -0.6821239 -0.7826978
000320 6a 7f bf bd d0 39 f5 3c 68 a5 e0 bc c3 f1 ca bd
       -0.09350474 0.029934794 -0.027422622 -0.09909394
000330 e4 90 74 3d 12 85 48 be 32 c9 ba 3d 26 a1 ea 3d
       0.05970849 -0.19582012 0.09120406 0.11456518
000340 e8 06 f7 3c 60 b1 bf bb e2 3a af 3d c8 30 26 be
       0.03015466 -0.005850002 0.08556153 -0.16229546
000350 81 08 0d 3e 48 04 23 3d 98 b1 34 bd 8d 37 ac bd
       0.13772775 0.039799005 -0.04411468 -0.08409033
000360 94 19 2a 3d ea 02 39 be 18 c0 19 bd e0 ae ac bd
       0.0415283 -0.18067518 -0.03753671 -0.08431792
000370 27 fd ba bd a5 58 01 be 80 22 27 3c 5f bc 2a 3e
       -0.09130316 -0.12631471 0.010201097 0.1667342
000380 07 3e e8 bd c9 f8 f1 bd 13 b5 38 3e 2d 0d ef bf
       -0.11339956 -0.1181503 0.18037824 -1.8675896
000390 4e 65 a7 bf 20 29 1b c0 08 af 5e 3d 1b ea d3 3e
       -1.3077791 -2.424385 0.05436614 0.41389546
0003a0 fb a5 3e 3e 72 04 8e 3f 0b 1f cd 3f c8 11 88 3e
       0.18618004 1.1095107 1.6025099 0.26576066
0003b0 b4 cb de 3e be 73 02 40 83 51 90 3f 31 aa fa 3f
       0.43514788 2.0383143 1.1274875 1.9583188
0003c0 ec 4b fe be 6a 04 e0 be 69 b2 91 bf 9f f5 d1 3e
       -0.496673 -0.43753368 -1.1382571 0.41007707
0003d0 48 f1 f5 3f 39 63 4e be 18 42 a9 be dc 6f 6a 3b
       1.9214258 -0.20155038 -0.33058238 0.003577224
0003e0 4a b7 02 3e 1a 9b 81 bf f0 92 f3 3b de f3 16 bd
       0.12765232 -1.0125458 0.007433288 -0.036853664
0003f0 23 50 81 bf 23 9f 97 3d 6a 48 b4 bd 8c 14 4e 3e
       -1.0102581 0.074034 -0.088028744 0.20125026

fc1.bias f4 [512]
000000 1e dd ab bd ea 58 70 be 11 31 d9 bd fb b6 66 3d
       -0.08391784 -0.23471418 -0.10605062 0.056326848
000010 b5 a4 1e bd bb 4c 57 3c 65 a9 0c be 3b 48 b5 bd
       -0.038731296 0.013140853 -0.13736494 -0.088516675
000020 4c d3 77 3d 70 50 9c 3b 55 64 95 bc a6 71 4b be
       0.060504243 0.004770331 -0.018236319 -0.19867572
000030 c0 d0 41 bd 90 17 f6 bd 6b 21 2c 3e 01 7e 81 bd
       -0.04731822 -0.12016213 0.16809623 -0.063228615
000040 58 16 99 3c 0f 59 d9 bd 1d c0 05 3e 35 ee 26 3d
       0.018687412 -0.1061269 0.13061567 0.040754516
000050 7a a2 01 be 6e b7 1f be 0b 8b 64 3e 3a 28 ee 3d
       -0.12659636 -0.15597317 0.22318666 0.11628766
000060 f3 24 a3 3c b1 38 bb 3d 26 f9 d4 3d 77 2f 0c 3e
       0.01991508 0.091416724 0.10399084 0.13689981
000070 5e 04 cb 3c f5 09 05 3e 82 6c 8f 3d 1d 9d 9a 3e
       0.024782356 0.1299208 0.07003118 0.30197993
000080 f3 63 b3 bd f4 99 54 bd e3 ad 90 be 95 10 02 3e
       -0.08759298 -0.051904634 -0.28257665 0.12701638
000090 1b e8 7a 3c 50 e0 a1 bd d9 c7 bb bc 5a 8c 6c bd
       0.015314127 -0.07904112 -0.022922443 -0.057751037
0000a0 6c 9f 8e be d8 22 12 3e 96 2f 10 be 46 dd cb 3d
       -0.27856004 0.14271104 -0.14080653 0.09954314
0000b0 4a c9 17 3d a1 8c ea 3d 88 9d 15 be 07 df 59 bc
       0.0370572 0.11452604 -0.14610875 -0.013297803
0000c0 ab e6 af bd 9a e3 68 ba 7c a1 ce bd 34 bb de 3d
       -0.08588918 -0.0008884013 -0.100893945 0.1087555
0000d0 94 6f ad 3b a6 a4 3f 3e e0 d5 06 3e fb 7f 1e 3d
       0.005292842 0.18715152 0.13167524 0.03869627
0000e0 be 43 0d 3e 7b 12 a2 3d 43 4d 19 bc d0 82 e1 3c
       0.13795373 0.07913681 -0.0093568 0.027528197
0000f0 0d 31 90 be df e1 99 bd a8 9c c4 3d ce 90 52 bd
       -0.28162423 -0.075137846 0.09600192 -0.051407628
000100 7b bf 73 bd f3 c9 3e be 17 53 7c be 17 fd 2e 3d
       -0.059508782 -0.18631725 -0.24641071 0.042721834
000110 44 ac c4 be 47 d1 b7 3d 93 95 07 3e 9b 8f ef bd
       -0.38412678 0.08975463 0.13240652 -0.116973124
000120 32 0a 30 be 00 b4 48 39 3a b4 bf bd aa e6 12 be
       -0.17191389 0.00019140542 -0.09360547 -0.14345804
000130 66 94 76 be 5f 95 5e 3e 4c 61 3a 3d 65 83 c6 bc
       -0.24080047 0.21736668 0.045502946 -0.024232576
000140 56 a2 fa 3c 2c e1 27 3d 8f 1f 06 be 40 a6 7b bd
       0.030594986 0.040986225 -0.13097976 -0.061437845
000150 24 71 cd bc 00 fa dc bd f2 fe e8 3d b4 81 2d 3e
       -0.025078364 -0.10789871 0.11376752 0.16944009
000160 34 ab 86 3d 03 a7 c3 bd 1a b5 2e 3d 46 51 0b be
       0.06575623 -0.09553339 0.04265318 -0.13605222
000170 9f c7 09 3e 48 2a e1 3d 58 e7 96 3e 07 8f c3 3c
       0.13455056 0.10994393 0.29473376 0.023871912
000180 79 b4 da 3d 17 2d 32 be 69 1e 84 be 02 11 cc bc
       0.10678954 -0.17400013 -0.2580445 -0.024910454
000190 cb fc 06 bd 90 c2 80 bd 15 a6 9c 3d 67 62 4e be
       -0.032955926 -0.0628711 0.07648865 -0.20154725
0001a0 10 96 6d bd e8 11 e7 3d b5 d1 65 bd 7d 1d c2 bb
       -0.05800444 0.11282712 -0.056108195 -0.0059239254
0001b0 a0 24 05 3d fa fa 82 3e 2b 96 af 3d 37 7a 52 3c
       0.03250563 0.25582105 0.08573564 0.012846521
0001c0 96 15 35 bd f9 5a 52 be 0c 43 f4 bd 0f f5 93 3d
       -0.04421004 -0.20542516 -0.11926851 0.072244756
0001d0 00 dc 43 3e 18 66 b7 bc ba 2a b3 bd 1e b2 cd bc
       0.19126892 -0.02238755 -0.08748384 -0.025109347
0001e0 2d 19 cd 3c 60 80 a8 bd 90 32 b2 bd 8d 91 14 3c
       0.025036419 -0.082276106 -0.0870105 0.009067905
0001f0 81 a9 da bd aa b6 c8 bd ae c0 8c be 9a 8e 22 be
       -0.106768616 -0.098004654 -0.27490753 -0.1587471
000200 8a 1a 6d 3e e4 a5 36 be ba 3b a5 3b 72 59 06 3e
       0.23154655 -0.1783672 0.0050425204 0.13120058
000210 26 a2 8b be 00 f7 45 be 4e 66 d6 3d dd fa 2b be
       -0.27272147 -0.19332504 0.10468732 -0.16794915
000220 76 02 88 3d 79 41 b6 3d ce 0c 20 bd 91 15 95 bd
       0.066410944 0.08899207 -0.03907471 -0.07279504
000230 6a aa 22 3e 5a 35 ee bd e9 99 94 3e 80 da ae bc
       0.1588532 -0.1163127 0.29023674 -0.021344423
000240 3c 40 60 3d 8c 4d 63 bd a6 0e 2d 3d 38 f1 62 bd
       0.05474876 -0.055493876 0.042250298 -0.055405825
000250 d7 9e 88 be b4 a5 09 3d da c1 31 3e cc 88 8a be
       -0.26683685 0.033605292 0.17359105 -0.27057493
000260 71 6f 55 bd 4f 20 9f bc 4c 6a e4 3c d7 b0 41 be
       -0.052108232 -0.019424586 0.027882718 -0.18915115
000270 a6 2c 2a be 1d 94 99 3e 31 4f 95 3c 00 d4 79 3b
       -0.16618595 0.29995814 0.018226238 0.0038120747
000280 74 6e 28 3e f6 c0 da 3d 02 7d c3 bc a4 d7 1d 3e
       0.16448385 0.10681336 -0.02386332 0.15414292
000290 45 86 9c 3e 91 6e 1a 3e 1d b0 0b be 8a 45 38 3e
       0.3057119 0.1508124 -0.136414 0.17995277
0002a0 bd ee 03 3e 4f 5c f0 3c 1e e3 cb bd 40 fc 2b be
       0.1288404 0.029340891 -0.099554285 -0.16795444
0002b0 7a 1c 97 3d 89 dc c8 3c 60 f8 16 3d f9 ad 09 3e
       0.07378478 0.024519222 0.036857963 0.13445272
0002c0 97 a1 84 3d 51 95 b0 bd 91 00 91 be 33 32 cc bd
       0.06476133 -0.0862223 -0.28320745 -0.09970512
0002d0 25 53 56 be 5d 23 99 bd b3 4d ce bd ea 7e ab bd
       -0.20930155 -0.07477448 -0.10073414 -0.08373816
0002e0 9c cd bd bd b6 9d 6e bd 86 b7 cf bc 20 ca 67 3d
       -0.092677325 -0.058255874 -0.025356065 0.056589246
0002f0 41 e8 af 3e 00 6d 6c 3e 46 c8 4f bc 86 04 89 be
       0.34356883 0.23088455 -0.012682026 -0.26761264
000300 ac 82 50 3e a7 65 35 be 71 fc 7d 3d ef 7c b8 3d
       0.20362347 -0.17714559 0.062008325 0.09008204
000310 6a b6 27 be 51 31 25 bc 5f 65 ee 3d 33 8d 0c be
       -0.16378179 -0.010082559 0.11640429 -0.13725738
000320 38 db 8f bd 69 b5 23 be 11 86 16 3e 31 fb 65 bd
       -0.070242345 -0.15987171 0.1469958 -0.056147758
000330 de 28 f4 bd b4 a7 48 3e 60 85 77 bd d8 5a e6 bd
       -0.11921857 0.19595224 -0.06042993 -0.11247796
000340 ca ac fe bd cd 06 b3 3d 55 3b 08 be 0e 53 8d bd
       -0.12435301 0.087415315 -0.13303883 -0.06900607
000350 94 0f 85 bd ea 77 c4 3e 51 27 71 3d d6 14 d5 3c
       -0.06497112 0.38372737 0.058875386 0.026010912
000360 00 4a ea b9 e3 04 46 be 43 69 0e bd 8c e5 70 bd
       -0.00044687092 -0.19337802 -0.034768354 -0.058812663
000370 a2 ad fb bd 18 c5 85 bb f7 99 39 be 2b 9a 43 be
       -0.12288977 -0.0040823333 -0.18125139 -0.19101779
000380 ea 9c 1b be b4 d5 01 be 63 5d 1b be 4c d0 b5 3d
       -0.15196577 -0.12679178 -0.15172343 0.0887762
000390 90 b5 e4 bd 36 ff 1c be 05 5f 48 be dd d6 37 3e
       -0.11167443 -0.1533173 -0.19567497 0.17953058
0003a0 8d b5 92 3c 8a eb 48 be bb 4c bd 3c 39 08 12 3d
       0.017908836 -0.19621101 0.023107877 0.035652373
0003b0 44 25 01 be 3e 67 e7 be 6e ce 0a 3e da fc 38 3e
       -0.12611872 -0.45195955 0.13555309 0.18065205
0003c0 77 5f 01 3d 26 4d ff 3a 3d 0d 1b be e5 e6 e5 bd
       0.031585183 0.0019477948 -0.15141769 -0.1122568
0003d0 ff ed 0e be c4 f4 b0 3d 71 51 3f 3e 91 76 95 bd
       -0.13957976 0.08640435 0.18683411 -0.07298005
0003e0 9b 9a 17 be de 8c 7f be b3 6f 2a be 91 d7 8c be
       -0.14805071 -0.2495608 -0.16644172 -0.27508214
0003f0 e0 ac e5 bd 9d 00 34 3e a8 01 2e be d8 1b 14 be
       -0.11214614 0.17578359 -0.1699282 -0.14463747

fc2.weight f4 [9, 512]
000000 24 9a 92 bf 7a ca 43 3c ce 5d fa 3c 78 e9 13 3c
       -1.145329 0.01195013 0.030562308 0.009027831
000010 ee f5 1e be 34 b6 9c be 33 82 de 3a d3 30 55 bf
       -0.15523502 -0.3060776 0.0016976058 -0.83277625
000020 d3 72 e4 bc f6 d2 ab be 09 fe 8a c0 6d d0 05 3d
       -0.027886784 -0.33559388 -4.34351 0.032669473
000030 2c dd 5e 3d de 94 31 bd 12 30 00 c0 c0 2e f3 bc
       0.054410145 -0.04335486 -2.002934 -0.029685378
000040 02 bf 9f 3c d8 16 95 3f 36 e1 d7 be 73 d6 af bf
       0.01950026 1.1647596 -0.4216401 -1.373732
000050 02 6e 87 bc 86 1a d6 3c f9 9f 76 bc f2 db 88 bf
       -0.016531948 0.026135694 -0.015052789 -1.0692122
000060 98 65 a8 3d d6 88 2f 3f a6 de 97 3c 3e 60 d3 be
       0.082225025 0.6856817 0.018538784 -0.41284364
000070 a9 b0 70 bf b8 63 25 3f 31 c4 a8 3f ab 0b 3e 3d
       -0.9401956 0.64605284 1.3184873 0.046397846
000080 ee 97 2b bb 0b 56 80 3f e4 53 b5 be e9 2f 0a 3f
       -0.0026183086 1.0026258 -0.35415566 0.53979355
000090 05 4f bc ba 8c 5f 84 bd 0c e3 2a ba d2 ab 2e 3c
       -0.0014366811 -0.064635366 -0.0006518818 0.010661082
0000a0 f4 98 6a be 40 0f 07 3e 8e 5c eb 3c 13 f1 16 bd
       -0.2290991 0.13189411 0.028730657 -0.036851
0000b0 8a 03 99 bd f3 0a 8b 3e b3 47 bc bc a6 85 9a 3e
       -0.07471378 0.2715679 -0.022983408 0.3018009
0000c0 80 08 dc bb a3 9e 73 bd a6 a7 22 3e 5b 69 47 3d
       -0.0067148805 -0.05947746 0.15884265 0.04868446
0000d0 2e f7 ea bc 73 a0 18 3d 12 07 3c 3a 93 b0 75 bc
       -0.028682318 0.03726239 0.00071726844 -0.014995712
0000e0 a5 77 b3 be 46 74 86 bc ee b6 08 bd ea 01 b6 3c
       -0.3505222 -0.016412865 -0.03337758 0.02221771
0000f0 cf a3 50 bc 73 41 a9 bc d2 0a 15 3d e5 82 1f 39
       -0.0127343675 -0.020661091 0.036387272 0.00015212184
000100 fa 9c 87 bd eb a1 d9 bc ee 76 33 be 9e b7 e0 bb
       -0.06621738 -0.026566466 -0.17525837 -0.0068578264
000110 b3 3c 41 bf 57 30 ea 3e 43 43 81 3d ee ff 2c 3a
       -0.75483245 0.45740005 0.06311657 0.0006599416
000120 48 e3 8d bb 60 f5 05 3b 5c 67 7e bc 71 a0 c6 bc
       -0.0043300726 0.0020440444 -0.0155275725 -0.024246426
000130 98 da 7a be 66 5c 0a 3f 26 2e d9 bc 19 0d 2a c0
       -0.2449745 0.5404724 -0.026511263 -2.6570494
000140 df e3 f7 3b c2 01 1b 3d 0c 3f db bd 0d 10 c3 3c
       0.007565006 0.037843473 -0.107053846 0.023811365
000150 42 39 4e bc f6 33 6c be 67 9b 2a 3d e7 03 4b 3d
       -0.0125868935 -0.23066697 0.04165211 0.04956427
000160 67 b9 a7 bf ba 23 9e bb 61 6b 84 bf 9d 3a 3c 3c
       -1.3103455 -0.0048260363 -1.034527 0.011488584
000170 94 8a 56 be 2f 1f ee bd 6d 3b 9b bd 0d 47 ce 3c
       -0.20951301 -0.116270415 -0.07579694 0.025180364
000180 db be aa 3c 51 61 02 bd 97 91 91 bd 1c 7b 04 bb
       0.02084296 -0.03183109 -0.07107847 -0.002021498
000190 4d 83 85 3d 54 93 04 bd 88 b5 23 3f 73 dc f1 39
       0.06519184 -0.032367066 0.6394887 0.0004613135
0001a0 48 ff f9 3e 91 87 aa bc e3 74 19 bd 8c d7 31 3d
       0.48827577 -0.020816596 -0.037464987 0.043418452
0001b0 49 4f 95 3e 5e 65 14 3d 8f cd 31 c0 5e 80 4e be
       0.29162052 0.036229484 -2.7781713 -0.20166156
0001c0 62 bb d9 3d 61 a5 2d bc c6 25 b8 bf fe 6a 95 3e
       0.106314436 -0.010598511 -1.4386528 0.2918319
0001d0 1c df aa 3c 6c df 08 bf a4 b6 a3 ba 9f cc c9 3b
       0.02085834 -0.53465915 -0.0012490344 0.006158426
0001e0 38 cf 7a bc 82 ae ba 3c 46 2c 38 3e c0 ba a4 bc
       -0.015308194 0.02278829 0.17985639 -0.02010858
0001f0 07 3c 27 3b 86 5d c8 bc ef 21 1f bc 25 c1 d2 bb
       0.0025517957 -0.024458658 -0.00971268 -0.006431716
000200 66 62 55 3d e6 22 70 3b 59 0c 88 3f c5 04 52 be
       0.052095793 0.0036641895 1.0628768 -0.20509632
000210 ea a5 0f 3f 40 3c 6e 3a 2e 72 51 3d 2c 17 76 bc
       0.5611254 0.00090879574 0.05113428 -0.015020173
000220 f0 0b 24 3d ae fa 4f bd 38 72 95 bd c2 a0 f0 be
       0.040050447 -0.050776176 -0.07297176 -0.46997648
000230 7a 2e 4f 3e 49 f1 0f bd 44 70 a6 bc e6 ba f5 3c
       0.20232573 -0.035142217 -0.020317204 0.029996347
000240 31 ab 32 be ff 53 23 bd 58 fb b2 3e 98 38 9f 3c
       -0.17448117 -0.039875027 0.34957385 0.019436166
000250 2f de 83 be 00 ad 0e 3c 1a d5 09 3d a4 2b 81 bc
       -0.2575545 0.008708239 0.033650495 -0.01576788
000260 54 85 81 bd 12 23 55 3e ef 47 38 bc c0 74 db ba
       -0.063242584 0.2081416 -0.011247619 -0.0016743168
000270 ec 4d 87 bc bb 86 2b 3d de 66 9d bf 3e b0 f7 bc
       -0.016516648 0.041876536 -1.2297018 -0.030235406
000280 bd 40 e1 be 22 e7 ff bc f4 50 28 bf 59 ab 98 be
       -0.43994704 -0.031238142 -0.65748525 -0.29818228
000290 5c e9 20 bd 89 97 e6 bd 74 1c 22 bc 25 cc 3d 3d
       -0.03928505 -0.11259372 -0.009894479 0.046337266
0002a0 c6 98 52 3d 9b b0 7b 3d 43 28 bb 3e c7 8e 17 bd
       0.051415227 0.06144772 0.36554155 -0.037001397
0002b0 43 94 db bd a4 20 8e 3d 25 db fb bc e0 6a a4 3a
       -0.10721638 0.069398195 -0.030744145 0.0012544058
0002c0 01 96 f9 3a 19 97 2d bd 4c 10 ea 3b 30 cd 33 bb
       0.0019041897 -0.042380426 0.007143056 -0.0027435534
0002d0 b7 af b2 3b 6c 01 d9 bf 28 84 a4 3b 4c 7a 40 3c
       0.0054530757 -1.6953559 0.005020637 0.011747908
0002e0 78 c8 8a bb e9 c3 ea 3b 46 47 b2 3a c9 f5 4f bc
       -0.0042353235 0.0071644676 0.0013601563 -0.012692877
0002f0 33 b2 f6 3b 5d e3 a0 3c 57 ee 02 bd 7a 61 d9 3d
       0.007528567 0.019639665 -0.03196558 0.10614295
000300 8d c9 0b 3f 45 ee 26 3d 9f eb 75 bc 08 87 ab 3b
       0.5460442 0.040754575 -0.01500979 0.005234603
000310 da 90 fa be 62 f0 a8 3e ed 14 a3 3e 8b c6 c3 3c
       -0.48938638 0.32995898 0.31851903 0.023898384
000320 4a 23 a4 bc 7d 94 f4 3e a0 b0 90 3b f6 4f 35 3d
       -0.020036358 0.47769538 0.0044155866 0.04426571
000330 2c 0a 0d c0 cb 0a 4c bf 23 85 54 bc fb 8e 00 3c
       -2.2037458 -0.7970397 -0.012971195 0.007846589
000340 04 0e 0d bd 1f 93 89 be d4 f6 e7 bc 54 3c bd bf
       -0.034437194 -0.26870057 -0.028315939 -1.4784036
000350 f9 44 01 bd 9b be 69 3c a2 ef 26 bc 96 3a c8 bd
       -0.031559918 0.014266635 -0.010188969 -0.097767994
000360 c0 8a 91 3a 68 30 3b 3c 11 cc 49 bd 6c 9d c4 3d
       0.0011103973 0.011425115 -0.04926688 0.09600338
000370 4b 13 81 be e7 74 11 bc a4 26 21 bc 0a cf bb bf
       -0.25210032 -0.008877969 -0.009835873 -1.4672558
000380 bc 82 19 3b 86 98 8f 3c c8 f9 04 3c 99 30 16 bd
       0.002342387 0.017528784 0.008116193 -0.03666744
000390 02 67 b8 3b 5f 7a 22 bf a0 c2 32 3b dd 48 c2 be
       0.005627514 -0.63467973 0.002727665 -0.37946215
0003a0 42 84 8f 3e 54 e6 0e 3c a1 71 ce 3e 4a 15 b7 3d
       0.28030592 0.008721907 0.40321067 0.089396074
0003b0 bf 79 e0 3c fe 48 bc bf 6a dd 67 bb 43 d7 58 3d
       0.027401803 -1.4709775 -0.0035379776 0.052939665
0003c0 cd 5b 39 3c c8 32 b5 3c f8 49 a5 3c c4 f2 64 bc
       0.011313391 0.022118941 0.020176873 -0.013973895
0003d0 fd b9 4d bf c7 c8 2d bf a8 f8 2f 3f 3e 6a 7d bc
       -0.8036192 -0.67884487 0.68738794 -0.015467225
0003e0 cb cf d3 bf 0a ee 17 bf 1e 93 0c bd db 9e ce 3c
       -1.6547788 -0.59347594 -0.03431999 0.025222233
0003f0 5d 4d a4 bc 54 b6 8c bc 6b ef c2 3c 4e 72 37 be
       -0.020056421 -0.017176785 0.023795804 -0.17914698

fc2.bias f4 [9]
000000 f5 07 70 bd b0 c6 01 3e 7b 2d 37 bf f8 a1 be be
       -0.05860134 0.1267345 -0.7155377 -0.37232947
000010 db c1 c9 be db 97 d2 be 49 4e 68 bf 87 aa 9d be
       -0.39405712 -0.41131482 -0.90744454 -0.30794165
000020 d7 4b 49 bf
       -0.7863135
