end/dqncontroller.pth (torch, 77215 bytes, 4 tensors)

fc1.weight f4 [512, 27]
-0.04705967 0.0031307638 0.11126016 -0.027559772 -0.088782005 0.10656245 -0.107181974 0.043065205
-0.16039139 -0.12983644 -0.10038282 0.04088594 0.13501121 0.08317129 0.0052616447 -0.17560816
-0.18350752 -0.11287314 0.08609001 -0.16651583 0.08425744 -0.02168338 -0.08895546 0.0090930015
-0.16151293 0.18145494 -0.05095002 -0.10656746 -0.13486691 0.16853037 -0.008745229 -0.14228201
0.11545649 0.19732942 -0.059608694 0.027611414 -0.06770757 0.15950297 -0.1064917 0.0068879523
0.15701458 0.16425325 -0.25293666 0.09916667 0.17956586 -0.19168417 0.13112564 -0.08092168
0.111768685 0.017762803 0.14737849 0.15508558 0.13283162 -0.1800231 -0.010817394 -0.1362634
-0.20066933 -0.055386785 -0.9450066 -0.28409854 0.31812626 -0.104207575 -0.047205787 0.9320757
-0.17224021 0.29968813 0.019928074 -0.26606017 1.0172914 0.022581778 -0.19448808 -0.18039827
0.07378655 0.27117765 0.0020949019 -0.07687785 -0.8884993 0.08490013 -0.0022536244 -0.089370966
0.021741036 0.08278892 -0.0895481 -0.03061075 0.1268398 0.41199845 0.017768238 -0.67048556
-0.43228775 -0.8886952 -0.428261 0.04286591 -0.6310729 0.5961914 -0.84934986 -0.15737744
-0.0840994 0.075868614 -0.095944084 -0.8592868 -0.64306563 -0.056247838 -0.06750346 0.012620734
-0.8432681 -0.35248598 -1.2473514 -0.26295036 -0.06910736 -0.25250977 0.5294081 0.12849127
0.94498265 -0.17316589 -0.2918511 -1.0363206 -1.0871065 -1.1188666 -0.035050027 -0.42424777
-0.28977287 -1.1511936 -0.8727332 -0.09083025 0.1578022 -0.53665286 -0.599273 -0.98742604
-0.10781423 0.23249169 -0.4110391 -0.7713681 -0.60503435 0.6922256 -0.07346256 -0.18265663
-0.2505153 -0.5237542 0.26363364 0.10835531 0.0139983045 0.41740617 0.052510735 -0.9319951
-0.07981562 -0.119429275 0.56109536 0.46360108 -1.0045509 0.16386257 -0.0025278367 0.109347925
-0.17307578 -1.286979 0.23423508 -0.22059615 0.17427383 0.4741617 -1.2946358 0.46214116
0.73864484 -0.025868446 -0.061083905 -0.27765918 -0.45525816 -0.29016143 -4.256309 -0.09036694
-0.36663002 0.14138578 0.9261065 4.164072 -0.025101531 -0.043776404 1.0505531 0.9755974
4.1618395 0.07619844 0.09548852 0.12850796 1.2583777 3.0601985 -0.13892321 0.19545159
0.030487431 1.3603292 3.360995 -0.83146834 -0.27130637 -0.12644197 -0.022155207 -0.022531657
-0.044843562 0.042680934 -0.21988267 0.016508482 0.0931426 -0.08967439 0.11347264 -0.044936813
-0.03743426 0.055063896 0.07639456 -0.21302347 0.08514472 0.031494606 0.032864437 0.13197215
0.08459428 0.05884005 -0.18768303 -0.12272379 -0.08570672 0.13765006 0.050869107 -0.1250711
-0.30425298 -0.18610534 0.5341133 0.23776214 1.7937673 -0.18640867 -0.15549217 -0.6924165
-1.2152267 -1.712011 -0.20300505 -0.08218962 -0.53671336 -0.9249816 -1.7033296 0.03188354
0.012085199 -0.26594162 -0.9433639 -1.6351138 -0.013003472 -0.21987265 -0.10367506 -0.7826699
-1.3080779 1.0314147 -0.037827622 -0.003323364 -0.2633818 -0.011532055 0.20486082 1.356489
0.026135944 -2.8081563 -0.0048801275 -1.4277152 -1.5655725 -0.09637492 -1.8542571 0.16376776
00000000: a4c1 40bd 802d 4d3b 5edc e33d 08c5 e1bc
00000010: 57d3 b5bd 6a3d da3d 3982 dbbd 2465 303d
00000020: a43d 24be d8f3 04be 8295 cdbd 0478 273d
00000030: 6140 0a3e b655 aa3d e069 ac3b a0d2 33be
00000040: 65e9 3bbe 082a e7bd f64f b03d 2083 2abe
00000050: 2a8f ac3d 58a1 b1bc 482e b6bd d0fa 143c
00000060: a563 25be 53cf 393e f8b0 50bd 0a40 dabd
00000070: 8d1a 0abe 3a93 2c3e 2648 0fbc 60b2 11be
00000080: 7474 ec3d b910 4a3e 3f28 74bd 5531 e23c
00000090: 44aa 8abd bf54 233e 5218 dabd 55b4 e13b
000000a0: 6ec8 203e 0132 283e ea80 81be e517 cb3d
000000b0: 1de0 373e db48 44be cd45 063e 44ba a5bd
000000c0: fbe6 e43d 4c83 913c 63ea 163e c1ce 1e3e
000000d0: 0305 083e fa57 38be 703b 31bc a288 0bbe
000000e0: 437c 4dbe 41dd 62bd f4eb 71bf 5d75 91be
000000f0: 72e1 a23e c86a d5bd db5a 41bd 839c 6e3f
00000100: bd5f 30be b970 993e 3340 a33c 0a39 88be
00000110: 9b36 823f 6cfd b83c e227 47be 53ba 38be
00000120: 671d 973d ccd7 8a3e 9f4a 093b 2272 9dbd
00000130: b174 63bf 1fe0 ad3d 8bb1 13bb 2008 b7bd
00000140: 421a b23c 3d8d a93d ff64 b7bd 65c3 fabc
00000150: 4be2 013e 76f1 d23e b28e 913c f1a4 2bbf
00000160: d254 ddbe 8781 63bf 0745 dbbe 2a94 2f3d
00000170: fe8d 21bf 00a0 183f fe6e 59bf 8d27 21be
00000180: 4e3c acbd 0161 9b3d 557e c4bd 38fa 5bbf
00000190: f39f 24bf 2264 66bd 413f 8abd 32c7 4e3c
000001a0: 6be0 57bf 0b79 b4be 36a9 9fbf 6ea1 86be
000001b0: 2988 8dbd f648 81be 4a87 073f 3793 033e
000001c0: 62ea 713f 6652 31be 826d 95be 27a6 84bf
000001d0: 4e26 8bbf 0537 8fbf 9e90 0fbd 0137 d9be
000001e0: 1c5d 94be 505a 93bf 716b 5fbf 3605 babd
000001f0: e696 213e 1562 09bf f569 19bf f4c7 7cbf
00000200: b5cd dcbd 4d12 6e3e b873 d2be 6178 45bf
00000210: 88e3 1abf b235 313f 8a73 96bd 570a 3bbe
00000220: 8b43 80be c114 06bf fdfa 863e 64e9 dd3d
00000230: 2559 653c 43b6 d53e 7f15 573d 3b97 6ebf
00000240: 5f76 a3bd 5697 f4bd f2a3 0f3f 1f5d ed3e
00000250: 2095 80bf 97cb 273e 10aa 25bb cef1 df3d
00000260: c73a 31be babb a4bf 52db 6f3e f5e3 61be
00000270: d774 323e 53c5 f23e a0b6 a5bf c49d ec3e
00000280: d417 3d3f 10ea d3bc 1e33 7abd 5829 8ebe
00000290: 9917 e9be 0a90 94be af33 88c0 4d12 b9bd
000002a0: eeb6 bbbe 6fc7 103e 5115 6d3f 1440 8540
000002b0: baa1 cdbc e34e 33bd 8678 863f c0c0 793f
000002c0: ca2d 8540 ed0d 9c3d 7c8f c33d 9797 033e
000002d0: 8512 a13f 4bda 4340 e341 0ebe 7624 483e
000002e0: c7c0 f93c 441f ae3f 8b1a 5740 1cdb 54bf
000002f0: abe8 8abe 017a 01be d67e b5bc 4f94 b8bc
00000300: e2ad 37bd 34d2 2e3d ec28 61be cc3c 873c
00000310: 8cc1 be3d 35a7 b7bd 5864 e83d aa0f 38bd
00000320: ab54 19bd ae8a 613d c074 9c3d d322 5abe
00000330: 5b60 ae3d 7d00 013d dc9c 063d b523 073e
00000340: c43f ad3d 4402 713d fb2f 40be 9c56 fbbd
00000350: 0187 afbd 23f4 0c3e 205c 503d a312 00be
00000360: 0cc7 9bbe 6692 3ebe a6bb 083f eb77 733e
00000370: 2b9a e53f eae1 3ebe 5739 1fbe 3542 31bf
00000380: 8c8c 9bbf 2d23 dbbf 8ee0 4fbe 0853 a8bd
00000390: 0c66 09bf 98cb 6cbf b406 dabf 5198 023d
000003a0: 0001 463c 8029 88be 4c80 71bf 694b d1bf
000003b0: 840c 55bc 4c26 61be 9753 d4bd 0e5d 48bf
000003c0: 196f a7bf 6605 843f 23f1 1abd cccc 59bb
000003d0: fbd9 86be f2f0 3cbc 09c7 513e 6ea1 ad3f
000003e0: 0c1b d63c d5b8 33c0 7ae9 9fbb 5fbf b6bf
000003f0: ae64 c8bf 3760 c5bd 4c58 edbf bcb2 273e

fc1.bias f4 [512]
-0.17227653 -0.11424204 -0.08018646 -0.06830069 -0.10659595 -0.22442809 -0.07354201 0.05856705
-0.18072075 0.083533496 -0.12113109 -0.05715701 -0.03586775 -0.14354277 0.12872063 -0.2676852
-0.23972245 -0.18916121 -0.22771384 0.117941864 -0.17056537 -0.088926814 0.08395924 0.10823543
0.16588604 -0.13377054 -0.05582094 -0.0697814 -0.08589966 -0.18518901 -0.15866873 -0.061873123
-0.06506835 -0.1379686 -0.0015329339 0.042221095 -0.10414677 0.03725188 -0.25170946 0.0643937
-0.34200543 -0.16434443 -0.117841296 0.16154256 0.08028293 -0.012534321 0.059526958 0.0226165
0.080331504 -0.18076023 -0.05376916 -0.13022308 -0.14094067 0.17355105 -0.25599092 -0.16313632
-0.00646279 -0.17497149 -0.042205557 -0.18335292 -0.18025875 0.13579029 0.026169064 -0.1530023
-0.042807907 0.01635755 0.073289275 0.038964286 -0.19642366 -0.0171123 -0.088548064 0.13798109
-0.22199413 -0.11303804 -0.18204288 0.041160867 -0.18980968 -0.18617623 0.119485006 -0.12586212
-0.21528459 -0.083797246 -0.0907259 0.088574745 0.080295116 0.1398236 -0.04456441 0.17787094
0.10340558 -0.006947674 -0.124768816 0.13508402 0.0012735871 -0.0973534 -0.0322811 -0.15848815
-0.15909567 -0.18948144 -0.07439445 -0.19871652 -0.3202721 -0.028427318 -0.034390602 -0.18255119
0.012423772 -0.0038745105 -0.19351561 0.018490719 -0.067856416 -0.16015679 0.12296284 0.07879737
-0.121431105 -0.08533579 -0.031884752 -0.08254824 -0.06275277 -0.07647758 0.089674346 -0.15539418
-0.10506419 -0.13012545 -0.23671323 -0.16908567 -0.109947376 -0.17961451 -0.18238096 -0.041329987
0.04268439 0.014487998 0.07566492 0.025906438 -0.0679627 0.050239354 -0.13894053 -0.1457561
-0.028286204 0.16250817 -0.18979236 -0.10716553 0.09167124 0.07740281 -0.12902305 0.19348103
-0.290059 -0.095016725 0.04165168 -0.20364986 -0.28604978 -0.052288905 0.033512603 -0.070295185
-0.08978912 0.02640386 0.04923459 -0.22033133 -0.13680936 -0.14403863 -0.08397909 0.1921628
-0.09858414 -0.0692426 0.053515926 -0.22869858 -0.10746719 -0.1976816 0.077449694 0.0037233382
-0.20483777 -0.005516954 -0.1250798 0.027022995 0.075054266 0.069871634 -0.044278786 -0.1806365
-0.23197305 -0.15121783 -0.06757803 0.13293283 -0.20274062 -0.33365354 -0.15175302 -0.16562213
-0.06914518 0.06970124 -0.05674418 0.09827158 0.08861861 -0.05534125 -0.16104698 -0.1659009
-0.31259313 0.19942662 -0.107677065 0.086363085 -0.06699413 0.036867324 -0.21291193 0.07690363
-0.19885728 0.10398699 -0.1713705 -0.20315878 -0.07734169 -0.14346868 -0.13582471 -0.18937118
-0.011883514 -0.16833109 -0.022706116 -0.05988152 -0.007708414 -0.16722304 -0.05627857 -0.04298376
0.10949056 0.17979042 -0.175122 0.061880484 -0.14846238 -0.16406791 0.042006627 0.027605394
0.0397223 3.0185968e-06 0.1317471 -0.15916245 0.14487043 -0.1394605 -0.01794984 -0.16326705
-0.12199141 -0.1734795 -0.020315621 -0.091381736 -0.24527442 -0.15900753 0.034545206 0.10608334
0.014160203 0.07075398 -0.16437426 0.11423205 -0.20120272 0.09051429 0.05917779 -0.048079297
0.13933708 0.06462074 -0.07441257 0.007977818 0.14623453 -0.35358593 -0.11955068 0.07209553
00000000: 4269 30be bbf7 e9bd cc38 a4bd 3be1 8bbd
00000010: fa4e dabd 7ad0 65be 319d 96bd 01e4 6f3d
00000020: dc0e 39be 9c13 ab3d 9413 f8bd 781d 6abd
00000030: 10ea 12bd e0fc 12be 57cf 033e 090e 89be
00000040: cd79 75be 7ab3 41be d12d 69be 818b f13d
00000050: b0a8 2ebe 431f b6bd d2f2 ab3d 8aaa dd3d
00000060: 08de 293e 25fb 08be 7fa4 64bd 8de9 8ebd
00000070: 29ec afbd 30a2 3dbe 0e7a 22be ac6e 7dbd
00000080: 8e42 85bd a447 0dbe baec c8ba 07f0 2c3d
00000090: e74a d5bd 6d95 183d 10e0 80be d8e0 833d
000000a0: 561b afbe e849 28be c756 f1bd 6a6b 253e
000000b0: 606b a43d c15c 4dbc 8ad2 733d 3d46 b93c
000000c0: d884 a43d 3619 39be 0d3d 5cbd 3359 05be
000000d0: c052 10be 5eb7 313e 3e11 83be 350d 27be
000000e0: d0c5 d3bb ba2b 33be bcdf 2cbd dec0 3bbe
000000f0: c095 38be 9c0c 0b3e 8160 d63c a3ac 1cbe
00000100: 5857 2fbd 4500 863c b018 963d 0499 1f3d
00000110: 4923 49be 182f 8cbc b058 b5bd ea4a 0d3e
00000120: 6e52 63be 7d80 e7bd 7369 3abe 4c98 283d
00000130: 785d 42be fba4 3ebe 8eb4 f43d 00e2 00be
00000140: 9073 5cbe e49d abbd 80ce b9bd ad66 b53d
00000150: c471 a43d eb2d 0f3e 2c89 36bd cd23 363e
00000160: 4ec6 d33d 50a9 e3bb cb86 ffbd 7753 0a3e
00000170: 7eee a63a 3861 c7bd 3039 04bd b84a 22be
00000180: fae9 22be 6c07 42be 1e5c 98bd 587c 4bbe
00000190: b4fa a3be 68e0 e8bc 29dd 0cbd b3ee 3abe
000001a0: 148d 4b3c 80eb 7dbb f528 46be d979 973c
000001b0: 4ef8 8abd 2400 24be f1d3 fb3d 8460 a13d
000001c0: dfb0 f8bd 88c4 aebd 9699 02bd 0d0f a9bd
000001d0: 8684 80bd 47a0 9cbd 2fa7 b73d a71f 1fbe
000001e0: e52b d7bd 9b3f 05be f464 72be cb24 2dbe
000001f0: 172c e1bd deec 37be 13c2 3abe a249 29bd
00000200: d4d5 2e3d 115f 6d3c 36f6 9a3d bd39 d43c
00000210: 0730 8bbd c8c7 4d3d 6d46 0ebe 1641 15be
00000220: 78b8 e7bc 8b68 263e ee58 42be 9a79 dbbd
00000230: 22be bb3d 5d85 9e3d 9e1e 04be e41f 463e
00000240: 9d82 94be 2198 c2bd f49a 2a3d 9789 50be
00000250: 1e75 92be e42c 56bd 8344 093d ecf6 8fbd
00000260: 5ce3 b7bd e84c d83c 36aa 493d 899e 61be
00000270: c117 0cbe dd7e 13be 3bfd abbd 53c6 443e
00000280: 7be6 c9bd 10cf 8dbd 8433 5b3d f62f 6abe
00000290: c217 dcbd 0c6d 4abe f29d 9e3d 4003 743b
000002a0: fec0 51be 91c7 b4bb eb14 00be 545f dd3c
000002b0: 0db6 993d dc18 8f3d ac5d 35bd c6f8 38be
000002c0: 588a 6dbe d9d8 1abe 5a66 8abd 8b1f 083e
000002d0: 3d9b 4fbe a3d4 aabe 2565 1bbe d998 29be
000002e0: fd9b 8dbd 86bf 8e3d 966c 68bd 9c42 c93d
000002f0: ac7d b53d 82ad 62bd 80e9 24be ede1 29be
00000300: 350c a0be 7e36 4c3e cb85 dcbd 21df b03d
00000310: 3834 89bd 3102 173d 9605 5abe a67f 9d3d
00000320: 3ea1 4bbe 22f7 d43d c07b 2fbe db08 50be
00000330: 5265 9ebd 74e9 12be a215 0bbe 85ea 41be
00000340: 12b3 42bc fc5e 2cbe 2d02 babc 5346 75bd
00000350: dd96 fcbb 843c 2bbe 5c84 66bd bd0f 30bd
00000360: 963c e03d fb1a 383e 2e53 33be 6476 7d3d
00000370: 8606 18be 6b01 28be 240f 2c3d b524 e23c
00000380: dab3 223d 1993 4a36 b6e8 063e 7bfb 22be
00000390: ea58 143e bcce 0ebe 8b0b 93bc 7a2f 27be
000003a0: a2d6 f9bd 9ca4 31be f26c a6bc 5926 bbbd
000003b0: 3829 7bbe dfd2 22be 467f 0d3d 3942 d93d
000003c0: 3200 683c 76e7 903d ba51 28be 7ef2 e93d
000003d0: 1608 4ebe 8e5f b93d 6964 723d ccee 44bd
000003e0: 61ae 0e3e e157 843d 9e65 98bd 65b5 023c
000003f0: 81be 153e 3709 b5be fdd6 f4bd d2a6 933d

fc2.weight f4 [9, 512]
0.024984393 0.0046271235 -0.029915905 -0.12813997 -0.64255226 -0.36789295 -0.38793975 -0.0027724623
-0.55204153 0.78068787 -0.0061805733 -0.11065193 0.026816245 -5.1296032e-05 0.002735339 -0.5637244
0.21584502 0.033400036 0.23852208 -0.41044345 -0.012027409 -0.93919194 0.3891715 0.014207587
0.034567956 0.55602276 -0.057248414 -0.0045105955 0.03187741 -0.54104227 0.87641054 -0.021085942
-0.026595825 -0.014279831 -1.0099411 0.40980944 -0.033338696 -0.060071312 -0.70361906 -0.3143395
-0.036389094 -0.015616655 -0.15400624 0.5748465 -0.39057207 0.16137232 0.5057042 -0.7833137
-0.023360563 -0.25930634 -0.4015162 0.03456692 0.0077365376 -0.026589565 -0.4631944 -0.2864357
0.062074397 -0.033791512 -0.02482376 0.04076093 -0.04244812 0.256286 -0.01907131 0.043364074
-0.020135852 0.03643224 -0.23499836 -0.042991165 -0.022301283 -0.007999741 -1.0757426 0.6192898
0.010511109 -0.03288731 -0.5170551 0.12771691 0.031684145 -0.008023478 -0.010084417 0.064731285
0.009754263 0.043925237 -0.20811206 0.04728157 0.30161092 0.12369193 0.09873504 -0.22127269
0.15351126 -0.31671876 0.044696 0.03346361 0.07693148 0.043855336 0.0006435178 0.025762368
-0.19081019 0.029451665 -0.69677866 -0.34632063 -0.46351856 -0.0023076166 -0.22881298 -0.037861202
0.107333615 -0.029809754 -0.44407967 0.037032884 -0.031039536 -0.0076928698 -0.43015987 0.17682719
-1.0733821 -0.028449902 -0.005691003 0.005682227 -0.24603783 0.06304904 -0.936492 -0.4976086
-0.008124791 -0.026276706 -0.40759194 -0.9254123 -0.35443032 -0.3179899 0.002616752 -0.6299158
0.09123363 -0.022121558 -0.380641 0.03549149 -0.0058593974 -0.41468835 -0.00026763603 -0.012059942
-0.008445945 -0.012567695 -0.7077705 -0.021011157 0.251201 0.0056281276 -0.021849621 0.10052165
0.061412904 -0.39353877 0.30662093 -0.666665 -0.48889548 -0.008517936 0.24442999 -0.6028334
-0.01862802 -0.020176487 0.12607391 -0.8383968 0.031437095 -0.8079926 -0.038443927 -0.0187979
-0.46811506 -0.50888884 -0.088679366 -0.048483472 -0.039880052 -0.031274185 0.06073421 -0.37725326
-0.50771403 0.2049894 -0.70586646 0.6496986 -0.7674087 -1.6688887 0.039412837 -0.0691787
0.06563321 0.0049874913 0.026037682 -0.006136411 0.039619047 -0.55263966 -0.3777686 0.2708676
-0.0714362 -0.013403192 0.09380449 1.2791682 0.01839208 0.09631568 -0.6594624 0.0028809793
-0.6896054 0.036795024 0.18663725 -0.40915996 -0.053350046 0.08538059 -0.4639811 0.41431373
-0.039320454 -0.0057876296 0.031623267 0.15092829 0.0040407963 0.044058558 -0.0018103959 -0.0025158972
-0.0016868728 -0.6070451 0.04018345 -0.2834649 -0.074566156 0.02910712 0.027363535 -0.099862024
-0.011597954 -0.45006186 -0.46503934 0.0036658794 0.013501242 -1.2118281 0.20664437 0.073132105
0.027154725 0.0669087 0.94840825 0.04353402 -0.013412643 0.0050877184 -0.058996577 -0.29997125
0.2767707 -1.2718619 -0.51846516 0.08432857 1.5043523 -0.24932866 -0.14245726 -0.25785547
0.0830826 -0.002400726 -0.012795951 -0.011014592 -0.19954266 -1.45706 -1.0798712 -0.15111992
0.4110886 0.48431662 0.050559532 -0.871779 -0.009136207 -0.45065868 -0.33822662 0.09692503
00000000: 12ac cc3c 209f 973b 3312 f5bc 2037 03be
00000010: 4e7e 24bf 775c bcbe 0aa0 c6be 33b2 35bb
00000020: 9852 0dbf 29db 473f 6886 cabb 7b9d e2bd
00000030: bead db3c b226 57b8 6043 333b 3e50 10bf
00000040: 7a06 5d3e 7ace 083d 223f 743e a525 d2be
00000050: 9c0e 45bc e26e 70bf 7d41 c73e f0c6 683c
00000060: 2197 0d3d 8257 0e3f 507d 6abd 9ecd 93bb
00000070: e391 023d bf81 0abf 715c 603f 6dbc acbc
00000080: 7ddf d9bc f4f5 69bc c045 81bf 8bd2 d13e
00000090: 288e 08bd 560d 76bd 6120 34bf 1bf1 a0be
000000a0: bb0c 15bd 00dd 7fbc d0b3 1dbe 2429 133f
000000b0: 10f9 c7be c93e 253e d575 013f 3f87 48bf
000000c0: a75e bfbc cdc3 84be 8893 cdbe 0b96 0d3d
000000d0: c882 fd3b 5cd2 d9bc d127 edbe b3a7 92be
000000e0: b941 7e3d f868 0abd 335b cbbc eff4 263d
000000f0: 14de 2dbd eb37 833e 703b 9cbc 879e 313d
00000100: f1f3 a4bc f939 153d 69a3 70be 8117 30bd
00000110: 2eb1 b6bc 5811 03bc efb1 89bf c789 1e3f
00000120: c936 2c3c d8b4 06bd b95d 04bf 39c8 023e
00000130: 3cc7 013d e874 03bc 1c39 25bc d691 843d
00000140: 58d0 1f3c f3ea 333d 541b 55be 52aa 413d
00000150: bf6c 9a3e 3252 fd3d 9935 ca3d 4f95 62be
00000160: 0e32 1d3e f628 a2be 2713 373d 2311 093d
00000170: 408e 9d3d a7a1 333d c0b1 283a 9a0b d33c
00000180: bf63 43be 9e44 f13c 1660 32bf f050 b1be
00000190: 4e52 edbe 623b 17bb f34d 6abe 5914 1bbd
000001a0: bad1 db3d 9633 f4bc 695e e3be cbaf 173d
000001b0: a046 febc 7814 fcbb ea3d dcbe 3012 353e
000001c0: 9664 89bf c50f e9bc 987b babb fa31 ba3b
000001d0: 57f1 7bbe db1f 813d f1bd 6fbf 8ec6 febe
000001e0: d81d 05bc 3f42 d7bc e4af d0be d2e7 6cbf
000001f0: e477 b5be 92cf a2be d07d 2b3b 2942 21bf
00000200: b3d8 ba3d 4538 b5bc 61e3 c2be 865f 113d
00000210: 3000 c0bb 0852 d4be 8051 8cb9 1097 45bc
00000220: dc60 0abc bce8 4dbc 7330 35bf 971f acbc
00000230: 6b9d 803e 286c b83b fafd b2bc 4bde cd3d
00000240: 198c 7b3d ea7d c9be 6bfd 9c3e 8faa 2abf
00000250: 8250 fabe d08e 0bbc db4b 7a3e 4a53 1abf
00000260: ca99 98bc 2949 a5bc 8519 013e 2ca1 56bf
00000270: 2fc4 003d 9ad8 4ebf 6177 1dbd 0efe 99bc
00000280: c7ac efbe 8a46 02bf 879d b5bd 9b96 46bd
00000290: 4459 23bd 5c19 00bd 6fc4 783d 5727 c1be
000002a0: 8cf9 01bf bee8 513e aab3 34bf a652 263f
000002b0: e674 44bf 259e d5bf 5b6f 213d 90ad 8dbd
000002c0: b46a 863d 1c6e a33b fa4c d53c f213 c9bb
000002d0: 9547 223d cb79 0dbf e36a c1be 28af 8a3e
000002e0: 244d 92bd 1099 5bbc 921c c03d c9bb a33f
000002f0: fdaa 963c 2841 c53d 87d2 28bf d0ce 3c3b
00000300: fb89 30bf 61b6 163d d61d 3f3e 6a7d d1be
00000310: 9485 5abd 05dc ae3d ee8e edbe ee20 d43e
00000320: 7c0e 21bd 28a6 bdbb 6687 013d f28c 1a3e
00000330: a868 843b bf76 343d ce4a edba c0e1 24bb
00000340: 0f1a ddba 4f67 1bbf 6797 243d 5022 91be
00000350: 24b6 98bd 0e72 ee3c 7e29 e03c 7684 ccbd
00000360: 5805 3ebc 826e e6be a319 eebe 403f 703b
00000370: 5034 5d3c 2f1d 9bbf 959a 533e 49c6 953d
00000380: 9673 de3c 6e07 893d e2ca 723f bb50 323d
00000390: b4c0 5bbc e0b6 a63b 65a6 71bd d595 99be
000003a0: e4b4 8d3e 5fcc a2bf 22ba 04bf 75b4 ac3d
000003b0: 9e8e c03f 0350 7fbe 51e0 11be a205 84be
000003c0: 3627 aa3d 8055 1dbb 1ca6 51bc 8c76 34bc
000003d0: e954 4cbe f180 babf 3839 8abf 2ebf 1abe
000003e0: 347a d23e 59f8 f73e 8317 4f3d e92c 5fbf
000003f0: 08b0 15bc bcbc e6be 0a2c adbe a180 c63d

fc2.bias f4 [9]
0.10155119 0.19531058 0.111820325 0.18489978 0.18287316 0.16097644 0.2786979 0.19655621
0.03589699
00000000: 12fa cf3d 7fff 473e 0e02 e53d 5e56 3d3e
00000010: 1a43 3b3e 02d7 243e 7eb1 8e3e 0846 493e
00000020: b908 133d
